I0123 10:26:21.334775 27649 caffe.cpp:355] Use GPU with device ID 0
I0123 10:26:21.528187 27649 net.cpp:296] The NetState phase (0) differed from the phase (1) specified by a rule in layer detection_out
I0123 10:26:21.528405 27649 net.cpp:53] Initializing net from parameters: 
name: "remove_bn"
state {
  phase: TRAIN
  level: 0
  stage: ""
}
layer {
  name: "data"
  type: "Input"
  top: "data"
  input_param {
    shape {
      dim: 1
      dim: 3
      dim: 320
      dim: 320
    }
  }
}
layer {
  name: "conv0"
  type: "Convolution"
  bottom: "data"
  top: "conv0"
  param {
    lr_mult: 1
    decay_mult: 1
  }
  convolution_param {
    num_output: 32
    bias_term: true
    pad: 1
    kernel_size: 3
    stride: 2
    weight_filler {
      type: "msra"
    }
  }
}
layer {
  name: "conv0/relu"
  type: "ReLU"
  bottom: "conv0"
  top: "conv0"
}
layer {
  name: "conv1/dw"
  type: "DepthwiseConvolution"
  bottom: "conv0"
  top: "conv1/dw"
  param {
    lr_mult: 1
    decay_mult: 1
  }
  convolution_param {
    num_output: 32
    bias_term: true
    pad: 1
    kernel_size: 3
    group: 32
    weight_filler {
      type: "msra"
    }
    engine: CAFFE
  }
}
layer {
  name: "conv1/dw/relu"
  type: "ReLU"
  bottom: "conv1/dw"
  top: "conv1/dw"
}
layer {
  name: "conv1"
  type: "Convolution"
  bottom: "conv1/dw"
  top: "conv1"
  param {
    lr_mult: 1
    decay_mult: 1
  }
  convolution_param {
    num_output: 64
    bias_term: true
    kernel_size: 1
    weight_filler {
      type: "msra"
    }
  }
}
layer {
  name: "conv1/relu"
  type: "ReLU"
  bottom: "conv1"
  top: "conv1"
}
layer {
  name: "conv2/dw"
  type: "DepthwiseConvolution"
  bottom: "conv1"
  top: "conv2/dw"
  param {
    lr_mult: 1
    decay_mult: 1
  }
  convolution_param {
    num_output: 64
    bias_term: true
    pad: 1
    kernel_size: 3
    group: 64
    stride: 2
    weight_filler {
      type: "msra"
    }
    engine: CAFFE
  }
}
layer {
  name: "conv2/dw/relu"
  type: "ReLU"
  bottom: "conv2/dw"
  top: "conv2/dw"
}
layer {
  name: "conv2"
  type: "Convolution"
  bottom: "conv2/dw"
  top: "conv2"
  param {
    lr_mult: 1
    decay_mult: 1
  }
  convolution_param {
    num_output: 128
    bias_term: true
    kernel_size: 1
    weight_filler {
      type: "msra"
    }
  }
}
layer {
  name: "conv2/relu"
  type: "ReLU"
  bottom: "conv2"
  top: "conv2"
}
layer {
  name: "conv3/dw"
  type: "DepthwiseConvolution"
  bottom: "conv2"
  top: "conv3/dw"
  param {
    lr_mult: 1
    decay_mult: 1
  }
  convolution_param {
    num_output: 128
    bias_term: true
    pad: 1
    kernel_size: 3
    group: 128
    weight_filler {
      type: "msra"
    }
    engine: CAFFE
  }
}
layer {
  name: "conv3/dw/relu"
  type: "ReLU"
  bottom: "conv3/dw"
  top: "conv3/dw"
}
layer {
  name: "conv3"
  type: "Convolution"
  bottom: "conv3/dw"
  top: "conv3"
  param {
    lr_mult: 1
    decay_mult: 1
  }
  convolution_param {
    num_output: 128
    bias_term: true
    kernel_size: 1
    weight_filler {
      type: "msra"
    }
  }
}
layer {
  name: "conv3/relu"
  type: "ReLU"
  bottom: "conv3"
  top: "conv3"
}
layer {
  name: "conv4/dw"
  type: "DepthwiseConvolution"
  bottom: "conv3"
  top: "conv4/dw"
  param {
    lr_mult: 1
    decay_mult: 1
  }
  convolution_param {
    num_output: 128
    bias_term: true
    pad: 1
    kernel_size: 3
    group: 128
    stride: 2
    weight_filler {
      type: "msra"
    }
    engine: CAFFE
  }
}
layer {
  name: "conv4/dw/relu"
  type: "ReLU"
  bottom: "conv4/dw"
  top: "conv4/dw"
}
layer {
  name: "conv4"
  type: "Convolution"
  bottom: "conv4/dw"
  top: "conv4"
  param {
    lr_mult: 1
    decay_mult: 1
  }
  convolution_param {
    num_output: 256
    bias_term: true
    kernel_size: 1
    weight_filler {
      type: "msra"
    }
  }
}
layer {
  name: "conv4/relu"
  type: "ReLU"
  bottom: "conv4"
  top: "conv4"
}
layer {
  name: "conv5/dw"
  type: "DepthwiseConvolution"
  bottom: "conv4"
  top: "conv5/dw"
  param {
    lr_mult: 1
    decay_mult: 1
  }
  convolution_param {
    num_output: 256
    bias_term: true
    pad: 1
    kernel_size: 3
    group: 256
    weight_filler {
      type: "msra"
    }
    engine: CAFFE
  }
}
layer {
  name: "conv5/dw/relu"
  type: "ReLU"
  bottom: "conv5/dw"
  top: "conv5/dw"
}
layer {
  name: "conv5"
  type: "Convolution"
  bottom: "conv5/dw"
  top: "conv5"
  param {
    lr_mult: 1
    decay_mult: 1
  }
  convolution_param {
    num_output: 256
    bias_term: true
    kernel_size: 1
    weight_filler {
      type: "msra"
    }
  }
}
layer {
  name: "conv5/relu"
  type: "ReLU"
  bottom: "conv5"
  top: "conv5"
}
layer {
  name: "conv6/dw"
  type: "DepthwiseConvolution"
  bottom: "conv5"
  top: "conv6/dw"
  param {
    lr_mult: 1
    decay_mult: 1
  }
  convolution_param {
    num_output: 256
    bias_term: true
    pad: 1
    kernel_size: 3
    group: 256
    stride: 2
    weight_filler {
      type: "msra"
    }
    engine: CAFFE
  }
}
layer {
  name: "conv6/dw/relu"
  type: "ReLU"
  bottom: "conv6/dw"
  top: "conv6/dw"
}
layer {
  name: "conv6"
  type: "Convolution"
  bottom: "conv6/dw"
  top: "conv6"
  param {
    lr_mult: 1
    decay_mult: 1
  }
  convolution_param {
    num_output: 512
    bias_term: true
    kernel_size: 1
    weight_filler {
      type: "msra"
    }
  }
}
layer {
  name: "conv6/relu"
  type: "ReLU"
  bottom: "conv6"
  top: "conv6"
}
layer {
  name: "conv7/dw"
  type: "DepthwiseConvolution"
  bottom: "conv6"
  top: "conv7/dw"
  param {
    lr_mult: 1
    decay_mult: 1
  }
  convolution_param {
    num_output: 512
    bias_term: true
    pad: 1
    kernel_size: 3
    group: 512
    weight_filler {
      type: "msra"
    }
    engine: CAFFE
  }
}
layer {
  name: "conv7/dw/relu"
  type: "ReLU"
  bottom: "conv7/dw"
  top: "conv7/dw"
}
layer {
  name: "conv7"
  type: "Convolution"
  bottom: "conv7/dw"
  top: "conv7"
  param {
    lr_mult: 1
    decay_mult: 1
  }
  convolution_param {
    num_output: 512
    bias_term: true
    kernel_size: 1
    weight_filler {
      type: "msra"
    }
  }
}
layer {
  name: "conv7/relu"
  type: "ReLU"
  bottom: "conv7"
  top: "conv7"
}
layer {
  name: "conv8/dw"
  type: "DepthwiseConvolution"
  bottom: "conv7"
  top: "conv8/dw"
  param {
    lr_mult: 1
    decay_mult: 1
  }
  convolution_param {
    num_output: 512
    bias_term: true
    pad: 1
    kernel_size: 3
    group: 512
    weight_filler {
      type: "msra"
    }
    engine: CAFFE
  }
}
layer {
  name: "conv8/dw/relu"
  type: "ReLU"
  bottom: "conv8/dw"
  top: "conv8/dw"
}
layer {
  name: "conv8"
  type: "Convolution"
  bottom: "conv8/dw"
  top: "conv8"
  param {
    lr_mult: 1
    decay_mult: 1
  }
  convolution_param {
    num_output: 512
    bias_term: true
    kernel_size: 1
    weight_filler {
      type: "msra"
    }
  }
}
layer {
  name: "conv8/relu"
  type: "ReLU"
  bottom: "conv8"
  top: "conv8"
}
layer {
  name: "conv9/dw"
  type: "DepthwiseConvolution"
  bottom: "conv8"
  top: "conv9/dw"
  param {
    lr_mult: 1
    decay_mult: 1
  }
  convolution_param {
    num_output: 512
    bias_term: true
    pad: 1
    kernel_size: 3
    group: 512
    weight_filler {
      type: "msra"
    }
    engine: CAFFE
  }
}
layer {
  name: "conv9/dw/relu"
  type: "ReLU"
  bottom: "conv9/dw"
  top: "conv9/dw"
}
layer {
  name: "conv9"
  type: "Convolution"
  bottom: "conv9/dw"
  top: "conv9"
  param {
    lr_mult: 1
    decay_mult: 1
  }
  convolution_param {
    num_output: 512
    bias_term: true
    kernel_size: 1
    weight_filler {
      type: "msra"
    }
  }
}
layer {
  name: "conv9/relu"
  type: "ReLU"
  bottom: "conv9"
  top: "conv9"
}
layer {
  name: "conv10/dw"
  type: "DepthwiseConvolution"
  bottom: "conv9"
  top: "conv10/dw"
  param {
    lr_mult: 1
    decay_mult: 1
  }
  convolution_param {
    num_output: 512
    bias_term: true
    pad: 1
    kernel_size: 3
    group: 512
    weight_filler {
      type: "msra"
    }
    engine: CAFFE
  }
}
layer {
  name: "conv10/dw/relu"
  type: "ReLU"
  bottom: "conv10/dw"
  top: "conv10/dw"
}
layer {
  name: "conv10"
  type: "Convolution"
  bottom: "conv10/dw"
  top: "conv10"
  param {
    lr_mult: 1
    decay_mult: 1
  }
  convolution_param {
    num_output: 512
    bias_term: true
    kernel_size: 1
    weight_filler {
      type: "msra"
    }
  }
}
layer {
  name: "conv10/relu"
  type: "ReLU"
  bottom: "conv10"
  top: "conv10"
}
layer {
  name: "conv11/dw"
  type: "DepthwiseConvolution"
  bottom: "conv10"
  top: "conv11/dw"
  param {
    lr_mult: 1
    decay_mult: 1
  }
  convolution_param {
    num_output: 512
    bias_term: true
    pad: 1
    kernel_size: 3
    group: 512
    weight_filler {
      type: "msra"
    }
    engine: CAFFE
  }
}
layer {
  name: "conv11/dw/relu"
  type: "ReLU"
  bottom: "conv11/dw"
  top: "conv11/dw"
}
layer {
  name: "conv11"
  type: "Convolution"
  bottom: "conv11/dw"
  top: "conv11"
  param {
    lr_mult: 1
    decay_mult: 1
  }
  convolution_param {
    num_output: 512
    bias_term: true
    kernel_size: 1
    weight_filler {
      type: "msra"
    }
  }
}
layer {
  name: "conv11/relu"
  type: "ReLU"
  bottom: "conv11"
  top: "conv11"
}
layer {
  name: "conv12/dw"
  type: "DepthwiseConvolution"
  bottom: "conv11"
  top: "conv12/dw"
  param {
    lr_mult: 1
    decay_mult: 1
  }
  convolution_param {
    num_output: 512
    bias_term: true
    pad: 1
    kernel_size: 3
    group: 512
    stride: 2
    weight_filler {
      type: "msra"
    }
    engine: CAFFE
  }
}
layer {
  name: "conv12/dw/relu"
  type: "ReLU"
  bottom: "conv12/dw"
  top: "conv12/dw"
}
layer {
  name: "conv12"
  type: "Convolution"
  bottom: "conv12/dw"
  top: "conv12"
  param {
    lr_mult: 1
    decay_mult: 1
  }
  convolution_param {
    num_output: 1024
    bias_term: true
    kernel_size: 1
    weight_filler {
      type: "msra"
    }
  }
}
layer {
  name: "conv12/relu"
  type: "ReLU"
  bottom: "conv12"
  top: "conv12"
}
layer {
  name: "conv13/dw"
  type: "DepthwiseConvolution"
  bottom: "conv12"
  top: "conv13/dw"
  param {
    lr_mult: 1
    decay_mult: 1
  }
  convolution_param {
    num_output: 1024
    bias_term: true
    pad: 1
    kernel_size: 3
    group: 1024
    weight_filler {
      type: "msra"
    }
    engine: CAFFE
  }
}
layer {
  name: "conv13/dw/relu"
  type: "ReLU"
  bottom: "conv13/dw"
  top: "conv13/dw"
}
layer {
  name: "conv13"
  type: "Convolution"
  bottom: "conv13/dw"
  top: "conv13"
  param {
    lr_mult: 1
    decay_mult: 1
  }
  convolution_param {
    num_output: 1024
    bias_term: true
    kernel_size: 1
    weight_filler {
      type: "msra"
    }
  }
}
layer {
  name: "conv13/relu"
  type: "ReLU"
  bottom: "conv13"
  top: "conv13"
}
layer {
  name: "conv15/dw"
  type: "DepthwiseConvolution"
  bottom: "conv13"
  top: "conv15/dw"
  param {
    lr_mult: 1
    decay_mult: 1
  }
  convolution_param {
    num_output: 1024
    bias_term: true
    pad: 1
    kernel_size: 3
    group: 1024
    weight_filler {
      type: "msra"
    }
    engine: CAFFE
  }
}
layer {
  name: "conv15/dw/relu"
  type: "ReLU"
  bottom: "conv15/dw"
  top: "conv15/dw"
}
layer {
  name: "conv15"
  type: "Convolution"
  bottom: "conv15/dw"
  top: "conv15"
  param {
    lr_mult: 1
    decay_mult: 1
  }
  convolution_param {
    num_output: 1024
    bias_term: true
    kernel_size: 1
    weight_filler {
      type: "msra"
    }
  }
}
layer {
  name: "conv15/relu"
  type: "ReLU"
  bottom: "conv15"
  top: "conv15"
}
layer {
  name: "upsample"
  type: "Deconvolution"
  bottom: "conv15"
  top: "upsample"
  param {
    lr_mult: 0
    decay_mult: 0
  }
  convolution_param {
    num_output: 512
    bias_term: false
    pad: 0
    kernel_size: 1
    group: 512
    stride: 2
    weight_filler {
      type: "constant"
      value: 1
    }
  }
}
layer {
  name: "maxpool"
  type: "Pooling"
  bottom: "upsample"
  top: "maxpool"
  pooling_param {
    pool: MAX
    kernel_size: 2
    stride: 1
    pad: 1
  }
}
layer {
  name: "conv17/dw"
  type: "DepthwiseConvolution"
  bottom: "conv11"
  top: "conv17/dw"
  param {
    lr_mult: 1
    decay_mult: 1
  }
  convolution_param {
    num_output: 512
    bias_term: true
    pad: 1
    kernel_size: 3
    group: 512
    weight_filler {
      type: "msra"
    }
    engine: CAFFE
  }
}
layer {
  name: "conv17/dw/relu"
  type: "ReLU"
  bottom: "conv17/dw"
  top: "conv17/dw"
}
layer {
  name: "conv17"
  type: "Convolution"
  bottom: "conv17/dw"
  top: "conv17"
  param {
    lr_mult: 1
    decay_mult: 1
  }
  convolution_param {
    num_output: 512
    bias_term: true
    kernel_size: 1
    weight_filler {
      type: "msra"
    }
  }
}
layer {
  name: "conv17/relu"
  type: "ReLU"
  bottom: "conv17"
  top: "conv17"
}
layer {
  name: "conv17/sum"
  type: "Eltwise"
  bottom: "maxpool"
  bottom: "conv17"
  top: "conv17/sum"
}
layer {
  name: "conv18/dw"
  type: "DepthwiseConvolution"
  bottom: "conv17/sum"
  top: "conv18/dw"
  param {
    lr_mult: 1
    decay_mult: 1
  }
  convolution_param {
    num_output: 512
    bias_term: true
    pad: 1
    kernel_size: 3
    group: 512
    weight_filler {
      type: "msra"
    }
    engine: CAFFE
  }
}
layer {
  name: "conv18/dw/relu"
  type: "ReLU"
  bottom: "conv18/dw"
  top: "conv18/dw"
}
layer {
  name: "conv18_new"
  type: "Convolution"
  bottom: "conv18/dw"
  top: "conv18_new"
  param {
    lr_mult: 1
    decay_mult: 1
  }
  convolution_param {
    num_output: 1024
    bias_term: true
    kernel_size: 1
    weight_filler {
      type: "msra"
    }
  }
}
layer {
  name: "conv18_new/relu"
  type: "ReLU"
  bottom: "conv18_new"
  top: "conv18_new"
}
layer {
  name: "conv19"
  type: "Convolution"
  bottom: "conv15"
  top: "conv19"
  param {
    lr_mult: 1
    decay_mult: 1
  }
  param {
    lr_mult: 2
    decay_mult: 0
  }
  convolution_param {
    num_output: 75
    bias_term: true
    pad: 0
    kernel_size: 1
    stride: 1
    weight_filler {
      type: "xavier"
    }
    bias_filler {
      value: 0
    }
  }
}
layer {
  name: "conv20"
  type: "Convolution"
  bottom: "conv18_new"
  top: "conv20"
  param {
    lr_mult: 1
    decay_mult: 1
  }
  param {
    lr_mult: 2
    decay_mult: 0
  }
  convolution_param {
    num_output: 75
    bias_term: true
    pad: 0
    kernel_size: 1
    stride: 1
    weight_filler {
      type: "xavier"
    }
    bias_filler {
      value: 0
    }
  }
}
I0123 10:26:21.528650 27649 layer_factory.hpp:77] Creating layer data
I0123 10:26:21.528661 27649 net.cpp:86] Creating Layer data
I0123 10:26:21.528666 27649 net.cpp:382] data -> data
I0123 10:26:21.539469 27649 net.cpp:124] Setting up data
I0123 10:26:21.539492 27649 net.cpp:131] Top shape: 1 3 320 320 (307200)
I0123 10:26:21.539510 27649 net.cpp:139] Memory required for data: 1228800
I0123 10:26:21.539518 27649 layer_factory.hpp:77] Creating layer conv0
I0123 10:26:21.539537 27649 net.cpp:86] Creating Layer conv0
I0123 10:26:21.539542 27649 net.cpp:408] conv0 <- data
I0123 10:26:21.539552 27649 net.cpp:382] conv0 -> conv0
I0123 10:26:21.540868 27649 net.cpp:124] Setting up conv0
I0123 10:26:21.540882 27649 net.cpp:131] Top shape: 1 32 160 160 (819200)
I0123 10:26:21.540885 27649 net.cpp:139] Memory required for data: 4505600
I0123 10:26:21.540912 27649 layer_factory.hpp:77] Creating layer conv0/relu
I0123 10:26:21.540920 27649 net.cpp:86] Creating Layer conv0/relu
I0123 10:26:21.540923 27649 net.cpp:408] conv0/relu <- conv0
I0123 10:26:21.540927 27649 net.cpp:369] conv0/relu -> conv0 (in-place)
I0123 10:26:21.540933 27649 net.cpp:124] Setting up conv0/relu
I0123 10:26:21.540937 27649 net.cpp:131] Top shape: 1 32 160 160 (819200)
I0123 10:26:21.540940 27649 net.cpp:139] Memory required for data: 7782400
I0123 10:26:21.540941 27649 layer_factory.hpp:77] Creating layer conv1/dw
I0123 10:26:21.540949 27649 net.cpp:86] Creating Layer conv1/dw
I0123 10:26:21.540967 27649 net.cpp:408] conv1/dw <- conv0
I0123 10:26:21.540971 27649 net.cpp:382] conv1/dw -> conv1/dw
I0123 10:26:21.541169 27649 net.cpp:124] Setting up conv1/dw
I0123 10:26:21.541188 27649 net.cpp:131] Top shape: 1 32 160 160 (819200)
I0123 10:26:21.541189 27649 net.cpp:139] Memory required for data: 11059200
I0123 10:26:21.541194 27649 layer_factory.hpp:77] Creating layer conv1/dw/relu
I0123 10:26:21.541213 27649 net.cpp:86] Creating Layer conv1/dw/relu
I0123 10:26:21.541215 27649 net.cpp:408] conv1/dw/relu <- conv1/dw
I0123 10:26:21.541218 27649 net.cpp:369] conv1/dw/relu -> conv1/dw (in-place)
I0123 10:26:21.541222 27649 net.cpp:124] Setting up conv1/dw/relu
I0123 10:26:21.541225 27649 net.cpp:131] Top shape: 1 32 160 160 (819200)
I0123 10:26:21.541240 27649 net.cpp:139] Memory required for data: 14336000
I0123 10:26:21.541242 27649 layer_factory.hpp:77] Creating layer conv1
I0123 10:26:21.541249 27649 net.cpp:86] Creating Layer conv1
I0123 10:26:21.541251 27649 net.cpp:408] conv1 <- conv1/dw
I0123 10:26:21.541255 27649 net.cpp:382] conv1 -> conv1
I0123 10:26:21.541954 27649 net.cpp:124] Setting up conv1
I0123 10:26:21.541963 27649 net.cpp:131] Top shape: 1 64 160 160 (1638400)
I0123 10:26:21.541965 27649 net.cpp:139] Memory required for data: 20889600
I0123 10:26:21.541971 27649 layer_factory.hpp:77] Creating layer conv1/relu
I0123 10:26:21.541975 27649 net.cpp:86] Creating Layer conv1/relu
I0123 10:26:21.541978 27649 net.cpp:408] conv1/relu <- conv1
I0123 10:26:21.541981 27649 net.cpp:369] conv1/relu -> conv1 (in-place)
I0123 10:26:21.541985 27649 net.cpp:124] Setting up conv1/relu
I0123 10:26:21.541988 27649 net.cpp:131] Top shape: 1 64 160 160 (1638400)
I0123 10:26:21.541990 27649 net.cpp:139] Memory required for data: 27443200
I0123 10:26:21.541992 27649 layer_factory.hpp:77] Creating layer conv2/dw
I0123 10:26:21.541997 27649 net.cpp:86] Creating Layer conv2/dw
I0123 10:26:21.542001 27649 net.cpp:408] conv2/dw <- conv1
I0123 10:26:21.542018 27649 net.cpp:382] conv2/dw -> conv2/dw
I0123 10:26:21.542681 27649 net.cpp:124] Setting up conv2/dw
I0123 10:26:21.542690 27649 net.cpp:131] Top shape: 1 64 80 80 (409600)
I0123 10:26:21.542693 27649 net.cpp:139] Memory required for data: 29081600
I0123 10:26:21.542697 27649 layer_factory.hpp:77] Creating layer conv2/dw/relu
I0123 10:26:21.542703 27649 net.cpp:86] Creating Layer conv2/dw/relu
I0123 10:26:21.542706 27649 net.cpp:408] conv2/dw/relu <- conv2/dw
I0123 10:26:21.542709 27649 net.cpp:369] conv2/dw/relu -> conv2/dw (in-place)
I0123 10:26:21.542713 27649 net.cpp:124] Setting up conv2/dw/relu
I0123 10:26:21.542716 27649 net.cpp:131] Top shape: 1 64 80 80 (409600)
I0123 10:26:21.542718 27649 net.cpp:139] Memory required for data: 30720000
I0123 10:26:21.542721 27649 layer_factory.hpp:77] Creating layer conv2
I0123 10:26:21.542726 27649 net.cpp:86] Creating Layer conv2
I0123 10:26:21.542742 27649 net.cpp:408] conv2 <- conv2/dw
I0123 10:26:21.542747 27649 net.cpp:382] conv2 -> conv2
I0123 10:26:21.543011 27649 net.cpp:124] Setting up conv2
I0123 10:26:21.543017 27649 net.cpp:131] Top shape: 1 128 80 80 (819200)
I0123 10:26:21.543020 27649 net.cpp:139] Memory required for data: 33996800
I0123 10:26:21.543025 27649 layer_factory.hpp:77] Creating layer conv2/relu
I0123 10:26:21.543030 27649 net.cpp:86] Creating Layer conv2/relu
I0123 10:26:21.543031 27649 net.cpp:408] conv2/relu <- conv2
I0123 10:26:21.543035 27649 net.cpp:369] conv2/relu -> conv2 (in-place)
I0123 10:26:21.543038 27649 net.cpp:124] Setting up conv2/relu
I0123 10:26:21.543041 27649 net.cpp:131] Top shape: 1 128 80 80 (819200)
I0123 10:26:21.543043 27649 net.cpp:139] Memory required for data: 37273600
I0123 10:26:21.543045 27649 layer_factory.hpp:77] Creating layer conv3/dw
I0123 10:26:21.543051 27649 net.cpp:86] Creating Layer conv3/dw
I0123 10:26:21.543052 27649 net.cpp:408] conv3/dw <- conv2
I0123 10:26:21.543071 27649 net.cpp:382] conv3/dw -> conv3/dw
I0123 10:26:21.543231 27649 net.cpp:124] Setting up conv3/dw
I0123 10:26:21.543236 27649 net.cpp:131] Top shape: 1 128 80 80 (819200)
I0123 10:26:21.543238 27649 net.cpp:139] Memory required for data: 40550400
I0123 10:26:21.543241 27649 layer_factory.hpp:77] Creating layer conv3/dw/relu
I0123 10:26:21.543247 27649 net.cpp:86] Creating Layer conv3/dw/relu
I0123 10:26:21.543249 27649 net.cpp:408] conv3/dw/relu <- conv3/dw
I0123 10:26:21.543252 27649 net.cpp:369] conv3/dw/relu -> conv3/dw (in-place)
I0123 10:26:21.543256 27649 net.cpp:124] Setting up conv3/dw/relu
I0123 10:26:21.543258 27649 net.cpp:131] Top shape: 1 128 80 80 (819200)
I0123 10:26:21.543260 27649 net.cpp:139] Memory required for data: 43827200
I0123 10:26:21.543262 27649 layer_factory.hpp:77] Creating layer conv3
I0123 10:26:21.543267 27649 net.cpp:86] Creating Layer conv3
I0123 10:26:21.543293 27649 net.cpp:408] conv3 <- conv3/dw
I0123 10:26:21.543298 27649 net.cpp:382] conv3 -> conv3
I0123 10:26:21.543579 27649 net.cpp:124] Setting up conv3
I0123 10:26:21.543586 27649 net.cpp:131] Top shape: 1 128 80 80 (819200)
I0123 10:26:21.543587 27649 net.cpp:139] Memory required for data: 47104000
I0123 10:26:21.543591 27649 layer_factory.hpp:77] Creating layer conv3/relu
I0123 10:26:21.543607 27649 net.cpp:86] Creating Layer conv3/relu
I0123 10:26:21.543610 27649 net.cpp:408] conv3/relu <- conv3
I0123 10:26:21.543613 27649 net.cpp:369] conv3/relu -> conv3 (in-place)
I0123 10:26:21.543617 27649 net.cpp:124] Setting up conv3/relu
I0123 10:26:21.543620 27649 net.cpp:131] Top shape: 1 128 80 80 (819200)
I0123 10:26:21.543622 27649 net.cpp:139] Memory required for data: 50380800
I0123 10:26:21.543624 27649 layer_factory.hpp:77] Creating layer conv4/dw
I0123 10:26:21.543628 27649 net.cpp:86] Creating Layer conv4/dw
I0123 10:26:21.543630 27649 net.cpp:408] conv4/dw <- conv3
I0123 10:26:21.543635 27649 net.cpp:382] conv4/dw -> conv4/dw
I0123 10:26:21.543790 27649 net.cpp:124] Setting up conv4/dw
I0123 10:26:21.543795 27649 net.cpp:131] Top shape: 1 128 40 40 (204800)
I0123 10:26:21.543798 27649 net.cpp:139] Memory required for data: 51200000
I0123 10:26:21.543802 27649 layer_factory.hpp:77] Creating layer conv4/dw/relu
I0123 10:26:21.543817 27649 net.cpp:86] Creating Layer conv4/dw/relu
I0123 10:26:21.543819 27649 net.cpp:408] conv4/dw/relu <- conv4/dw
I0123 10:26:21.543823 27649 net.cpp:369] conv4/dw/relu -> conv4/dw (in-place)
I0123 10:26:21.543825 27649 net.cpp:124] Setting up conv4/dw/relu
I0123 10:26:21.543828 27649 net.cpp:131] Top shape: 1 128 40 40 (204800)
I0123 10:26:21.543830 27649 net.cpp:139] Memory required for data: 52019200
I0123 10:26:21.543833 27649 layer_factory.hpp:77] Creating layer conv4
I0123 10:26:21.543838 27649 net.cpp:86] Creating Layer conv4
I0123 10:26:21.543839 27649 net.cpp:408] conv4 <- conv4/dw
I0123 10:26:21.543844 27649 net.cpp:382] conv4 -> conv4
I0123 10:26:21.544226 27649 net.cpp:124] Setting up conv4
I0123 10:26:21.544234 27649 net.cpp:131] Top shape: 1 256 40 40 (409600)
I0123 10:26:21.544235 27649 net.cpp:139] Memory required for data: 53657600
I0123 10:26:21.544241 27649 layer_factory.hpp:77] Creating layer conv4/relu
I0123 10:26:21.544245 27649 net.cpp:86] Creating Layer conv4/relu
I0123 10:26:21.544247 27649 net.cpp:408] conv4/relu <- conv4
I0123 10:26:21.544250 27649 net.cpp:369] conv4/relu -> conv4 (in-place)
I0123 10:26:21.544255 27649 net.cpp:124] Setting up conv4/relu
I0123 10:26:21.544257 27649 net.cpp:131] Top shape: 1 256 40 40 (409600)
I0123 10:26:21.544260 27649 net.cpp:139] Memory required for data: 55296000
I0123 10:26:21.544261 27649 layer_factory.hpp:77] Creating layer conv5/dw
I0123 10:26:21.544266 27649 net.cpp:86] Creating Layer conv5/dw
I0123 10:26:21.544268 27649 net.cpp:408] conv5/dw <- conv4
I0123 10:26:21.544273 27649 net.cpp:382] conv5/dw -> conv5/dw
I0123 10:26:21.544430 27649 net.cpp:124] Setting up conv5/dw
I0123 10:26:21.544435 27649 net.cpp:131] Top shape: 1 256 40 40 (409600)
I0123 10:26:21.544436 27649 net.cpp:139] Memory required for data: 56934400
I0123 10:26:21.544440 27649 layer_factory.hpp:77] Creating layer conv5/dw/relu
I0123 10:26:21.544442 27649 net.cpp:86] Creating Layer conv5/dw/relu
I0123 10:26:21.544445 27649 net.cpp:408] conv5/dw/relu <- conv5/dw
I0123 10:26:21.544447 27649 net.cpp:369] conv5/dw/relu -> conv5/dw (in-place)
I0123 10:26:21.544450 27649 net.cpp:124] Setting up conv5/dw/relu
I0123 10:26:21.544453 27649 net.cpp:131] Top shape: 1 256 40 40 (409600)
I0123 10:26:21.544456 27649 net.cpp:139] Memory required for data: 58572800
I0123 10:26:21.544458 27649 layer_factory.hpp:77] Creating layer conv5
I0123 10:26:21.544462 27649 net.cpp:86] Creating Layer conv5
I0123 10:26:21.544464 27649 net.cpp:408] conv5 <- conv5/dw
I0123 10:26:21.544469 27649 net.cpp:382] conv5 -> conv5
I0123 10:26:21.545045 27649 net.cpp:124] Setting up conv5
I0123 10:26:21.545051 27649 net.cpp:131] Top shape: 1 256 40 40 (409600)
I0123 10:26:21.545074 27649 net.cpp:139] Memory required for data: 60211200
I0123 10:26:21.545078 27649 layer_factory.hpp:77] Creating layer conv5/relu
I0123 10:26:21.545083 27649 net.cpp:86] Creating Layer conv5/relu
I0123 10:26:21.545085 27649 net.cpp:408] conv5/relu <- conv5
I0123 10:26:21.545089 27649 net.cpp:369] conv5/relu -> conv5 (in-place)
I0123 10:26:21.545091 27649 net.cpp:124] Setting up conv5/relu
I0123 10:26:21.545094 27649 net.cpp:131] Top shape: 1 256 40 40 (409600)
I0123 10:26:21.545096 27649 net.cpp:139] Memory required for data: 61849600
I0123 10:26:21.545099 27649 layer_factory.hpp:77] Creating layer conv6/dw
I0123 10:26:21.545104 27649 net.cpp:86] Creating Layer conv6/dw
I0123 10:26:21.545107 27649 net.cpp:408] conv6/dw <- conv5
I0123 10:26:21.545110 27649 net.cpp:382] conv6/dw -> conv6/dw
I0123 10:26:21.545328 27649 net.cpp:124] Setting up conv6/dw
I0123 10:26:21.545333 27649 net.cpp:131] Top shape: 1 256 20 20 (102400)
I0123 10:26:21.545336 27649 net.cpp:139] Memory required for data: 62259200
I0123 10:26:21.545339 27649 layer_factory.hpp:77] Creating layer conv6/dw/relu
I0123 10:26:21.545342 27649 net.cpp:86] Creating Layer conv6/dw/relu
I0123 10:26:21.545346 27649 net.cpp:408] conv6/dw/relu <- conv6/dw
I0123 10:26:21.545348 27649 net.cpp:369] conv6/dw/relu -> conv6/dw (in-place)
I0123 10:26:21.545351 27649 net.cpp:124] Setting up conv6/dw/relu
I0123 10:26:21.545353 27649 net.cpp:131] Top shape: 1 256 20 20 (102400)
I0123 10:26:21.545356 27649 net.cpp:139] Memory required for data: 62668800
I0123 10:26:21.545358 27649 layer_factory.hpp:77] Creating layer conv6
I0123 10:26:21.545362 27649 net.cpp:86] Creating Layer conv6
I0123 10:26:21.545366 27649 net.cpp:408] conv6 <- conv6/dw
I0123 10:26:21.545369 27649 net.cpp:382] conv6 -> conv6
I0123 10:26:21.546864 27649 net.cpp:124] Setting up conv6
I0123 10:26:21.546874 27649 net.cpp:131] Top shape: 1 512 20 20 (204800)
I0123 10:26:21.546875 27649 net.cpp:139] Memory required for data: 63488000
I0123 10:26:21.546893 27649 layer_factory.hpp:77] Creating layer conv6/relu
I0123 10:26:21.546897 27649 net.cpp:86] Creating Layer conv6/relu
I0123 10:26:21.546900 27649 net.cpp:408] conv6/relu <- conv6
I0123 10:26:21.546905 27649 net.cpp:369] conv6/relu -> conv6 (in-place)
I0123 10:26:21.546908 27649 net.cpp:124] Setting up conv6/relu
I0123 10:26:21.546911 27649 net.cpp:131] Top shape: 1 512 20 20 (204800)
I0123 10:26:21.546913 27649 net.cpp:139] Memory required for data: 64307200
I0123 10:26:21.546916 27649 layer_factory.hpp:77] Creating layer conv7/dw
I0123 10:26:21.546921 27649 net.cpp:86] Creating Layer conv7/dw
I0123 10:26:21.546924 27649 net.cpp:408] conv7/dw <- conv6
I0123 10:26:21.546928 27649 net.cpp:382] conv7/dw -> conv7/dw
I0123 10:26:21.547169 27649 net.cpp:124] Setting up conv7/dw
I0123 10:26:21.547174 27649 net.cpp:131] Top shape: 1 512 20 20 (204800)
I0123 10:26:21.547176 27649 net.cpp:139] Memory required for data: 65126400
I0123 10:26:21.547179 27649 layer_factory.hpp:77] Creating layer conv7/dw/relu
I0123 10:26:21.547199 27649 net.cpp:86] Creating Layer conv7/dw/relu
I0123 10:26:21.547200 27649 net.cpp:408] conv7/dw/relu <- conv7/dw
I0123 10:26:21.547204 27649 net.cpp:369] conv7/dw/relu -> conv7/dw (in-place)
I0123 10:26:21.547206 27649 net.cpp:124] Setting up conv7/dw/relu
I0123 10:26:21.547209 27649 net.cpp:131] Top shape: 1 512 20 20 (204800)
I0123 10:26:21.547211 27649 net.cpp:139] Memory required for data: 65945600
I0123 10:26:21.547214 27649 layer_factory.hpp:77] Creating layer conv7
I0123 10:26:21.547217 27649 net.cpp:86] Creating Layer conv7
I0123 10:26:21.547222 27649 net.cpp:408] conv7 <- conv7/dw
I0123 10:26:21.547226 27649 net.cpp:382] conv7 -> conv7
I0123 10:26:21.548997 27649 net.cpp:124] Setting up conv7
I0123 10:26:21.549005 27649 net.cpp:131] Top shape: 1 512 20 20 (204800)
I0123 10:26:21.549006 27649 net.cpp:139] Memory required for data: 66764800
I0123 10:26:21.549010 27649 layer_factory.hpp:77] Creating layer conv7/relu
I0123 10:26:21.549013 27649 net.cpp:86] Creating Layer conv7/relu
I0123 10:26:21.549015 27649 net.cpp:408] conv7/relu <- conv7
I0123 10:26:21.549028 27649 net.cpp:369] conv7/relu -> conv7 (in-place)
I0123 10:26:21.549032 27649 net.cpp:124] Setting up conv7/relu
I0123 10:26:21.549036 27649 net.cpp:131] Top shape: 1 512 20 20 (204800)
I0123 10:26:21.549052 27649 net.cpp:139] Memory required for data: 67584000
I0123 10:26:21.549055 27649 layer_factory.hpp:77] Creating layer conv8/dw
I0123 10:26:21.549059 27649 net.cpp:86] Creating Layer conv8/dw
I0123 10:26:21.549062 27649 net.cpp:408] conv8/dw <- conv7
I0123 10:26:21.549065 27649 net.cpp:382] conv8/dw -> conv8/dw
I0123 10:26:21.549268 27649 net.cpp:124] Setting up conv8/dw
I0123 10:26:21.549273 27649 net.cpp:131] Top shape: 1 512 20 20 (204800)
I0123 10:26:21.549289 27649 net.cpp:139] Memory required for data: 68403200
I0123 10:26:21.549293 27649 layer_factory.hpp:77] Creating layer conv8/dw/relu
I0123 10:26:21.549299 27649 net.cpp:86] Creating Layer conv8/dw/relu
I0123 10:26:21.549301 27649 net.cpp:408] conv8/dw/relu <- conv8/dw
I0123 10:26:21.549304 27649 net.cpp:369] conv8/dw/relu -> conv8/dw (in-place)
I0123 10:26:21.549307 27649 net.cpp:124] Setting up conv8/dw/relu
I0123 10:26:21.549325 27649 net.cpp:131] Top shape: 1 512 20 20 (204800)
I0123 10:26:21.549327 27649 net.cpp:139] Memory required for data: 69222400
I0123 10:26:21.549329 27649 layer_factory.hpp:77] Creating layer conv8
I0123 10:26:21.549335 27649 net.cpp:86] Creating Layer conv8
I0123 10:26:21.549338 27649 net.cpp:408] conv8 <- conv8/dw
I0123 10:26:21.549342 27649 net.cpp:382] conv8 -> conv8
I0123 10:26:21.551590 27649 net.cpp:124] Setting up conv8
I0123 10:26:21.551601 27649 net.cpp:131] Top shape: 1 512 20 20 (204800)
I0123 10:26:21.551604 27649 net.cpp:139] Memory required for data: 70041600
I0123 10:26:21.551626 27649 layer_factory.hpp:77] Creating layer conv8/relu
I0123 10:26:21.551633 27649 net.cpp:86] Creating Layer conv8/relu
I0123 10:26:21.551636 27649 net.cpp:408] conv8/relu <- conv8
I0123 10:26:21.551640 27649 net.cpp:369] conv8/relu -> conv8 (in-place)
I0123 10:26:21.551643 27649 net.cpp:124] Setting up conv8/relu
I0123 10:26:21.551646 27649 net.cpp:131] Top shape: 1 512 20 20 (204800)
I0123 10:26:21.551648 27649 net.cpp:139] Memory required for data: 70860800
I0123 10:26:21.551651 27649 layer_factory.hpp:77] Creating layer conv9/dw
I0123 10:26:21.551656 27649 net.cpp:86] Creating Layer conv9/dw
I0123 10:26:21.551659 27649 net.cpp:408] conv9/dw <- conv8
I0123 10:26:21.551663 27649 net.cpp:382] conv9/dw -> conv9/dw
I0123 10:26:21.551909 27649 net.cpp:124] Setting up conv9/dw
I0123 10:26:21.551915 27649 net.cpp:131] Top shape: 1 512 20 20 (204800)
I0123 10:26:21.551918 27649 net.cpp:139] Memory required for data: 71680000
I0123 10:26:21.551920 27649 layer_factory.hpp:77] Creating layer conv9/dw/relu
I0123 10:26:21.551936 27649 net.cpp:86] Creating Layer conv9/dw/relu
I0123 10:26:21.551939 27649 net.cpp:408] conv9/dw/relu <- conv9/dw
I0123 10:26:21.551942 27649 net.cpp:369] conv9/dw/relu -> conv9/dw (in-place)
I0123 10:26:21.551945 27649 net.cpp:124] Setting up conv9/dw/relu
I0123 10:26:21.551949 27649 net.cpp:131] Top shape: 1 512 20 20 (204800)
I0123 10:26:21.551950 27649 net.cpp:139] Memory required for data: 72499200
I0123 10:26:21.551952 27649 layer_factory.hpp:77] Creating layer conv9
I0123 10:26:21.551957 27649 net.cpp:86] Creating Layer conv9
I0123 10:26:21.551960 27649 net.cpp:408] conv9 <- conv9/dw
I0123 10:26:21.551964 27649 net.cpp:382] conv9 -> conv9
I0123 10:26:21.553782 27649 net.cpp:124] Setting up conv9
I0123 10:26:21.553789 27649 net.cpp:131] Top shape: 1 512 20 20 (204800)
I0123 10:26:21.553791 27649 net.cpp:139] Memory required for data: 73318400
I0123 10:26:21.553794 27649 layer_factory.hpp:77] Creating layer conv9/relu
I0123 10:26:21.553812 27649 net.cpp:86] Creating Layer conv9/relu
I0123 10:26:21.553814 27649 net.cpp:408] conv9/relu <- conv9
I0123 10:26:21.553818 27649 net.cpp:369] conv9/relu -> conv9 (in-place)
I0123 10:26:21.553822 27649 net.cpp:124] Setting up conv9/relu
I0123 10:26:21.553824 27649 net.cpp:131] Top shape: 1 512 20 20 (204800)
I0123 10:26:21.553828 27649 net.cpp:139] Memory required for data: 74137600
I0123 10:26:21.553838 27649 layer_factory.hpp:77] Creating layer conv10/dw
I0123 10:26:21.553843 27649 net.cpp:86] Creating Layer conv10/dw
I0123 10:26:21.553845 27649 net.cpp:408] conv10/dw <- conv9
I0123 10:26:21.553850 27649 net.cpp:382] conv10/dw -> conv10/dw
I0123 10:26:21.554091 27649 net.cpp:124] Setting up conv10/dw
I0123 10:26:21.554096 27649 net.cpp:131] Top shape: 1 512 20 20 (204800)
I0123 10:26:21.554100 27649 net.cpp:139] Memory required for data: 74956800
I0123 10:26:21.554102 27649 layer_factory.hpp:77] Creating layer conv10/dw/relu
I0123 10:26:21.554119 27649 net.cpp:86] Creating Layer conv10/dw/relu
I0123 10:26:21.554122 27649 net.cpp:408] conv10/dw/relu <- conv10/dw
I0123 10:26:21.554126 27649 net.cpp:369] conv10/dw/relu -> conv10/dw (in-place)
I0123 10:26:21.554128 27649 net.cpp:124] Setting up conv10/dw/relu
I0123 10:26:21.554131 27649 net.cpp:131] Top shape: 1 512 20 20 (204800)
I0123 10:26:21.554133 27649 net.cpp:139] Memory required for data: 75776000
I0123 10:26:21.554136 27649 layer_factory.hpp:77] Creating layer conv10
I0123 10:26:21.554141 27649 net.cpp:86] Creating Layer conv10
I0123 10:26:21.554144 27649 net.cpp:408] conv10 <- conv10/dw
I0123 10:26:21.554149 27649 net.cpp:382] conv10 -> conv10
I0123 10:26:21.556434 27649 net.cpp:124] Setting up conv10
I0123 10:26:21.556447 27649 net.cpp:131] Top shape: 1 512 20 20 (204800)
I0123 10:26:21.556448 27649 net.cpp:139] Memory required for data: 76595200
I0123 10:26:21.556466 27649 layer_factory.hpp:77] Creating layer conv10/relu
I0123 10:26:21.556471 27649 net.cpp:86] Creating Layer conv10/relu
I0123 10:26:21.556474 27649 net.cpp:408] conv10/relu <- conv10
I0123 10:26:21.556479 27649 net.cpp:369] conv10/relu -> conv10 (in-place)
I0123 10:26:21.556483 27649 net.cpp:124] Setting up conv10/relu
I0123 10:26:21.556486 27649 net.cpp:131] Top shape: 1 512 20 20 (204800)
I0123 10:26:21.556488 27649 net.cpp:139] Memory required for data: 77414400
I0123 10:26:21.556491 27649 layer_factory.hpp:77] Creating layer conv11/dw
I0123 10:26:21.556496 27649 net.cpp:86] Creating Layer conv11/dw
I0123 10:26:21.556500 27649 net.cpp:408] conv11/dw <- conv10
I0123 10:26:21.556504 27649 net.cpp:382] conv11/dw -> conv11/dw
I0123 10:26:21.556751 27649 net.cpp:124] Setting up conv11/dw
I0123 10:26:21.556756 27649 net.cpp:131] Top shape: 1 512 20 20 (204800)
I0123 10:26:21.556759 27649 net.cpp:139] Memory required for data: 78233600
I0123 10:26:21.556762 27649 layer_factory.hpp:77] Creating layer conv11/dw/relu
I0123 10:26:21.556782 27649 net.cpp:86] Creating Layer conv11/dw/relu
I0123 10:26:21.556784 27649 net.cpp:408] conv11/dw/relu <- conv11/dw
I0123 10:26:21.556787 27649 net.cpp:369] conv11/dw/relu -> conv11/dw (in-place)
I0123 10:26:21.556790 27649 net.cpp:124] Setting up conv11/dw/relu
I0123 10:26:21.556793 27649 net.cpp:131] Top shape: 1 512 20 20 (204800)
I0123 10:26:21.556795 27649 net.cpp:139] Memory required for data: 79052800
I0123 10:26:21.556797 27649 layer_factory.hpp:77] Creating layer conv11
I0123 10:26:21.556802 27649 net.cpp:86] Creating Layer conv11
I0123 10:26:21.556805 27649 net.cpp:408] conv11 <- conv11/dw
I0123 10:26:21.556810 27649 net.cpp:382] conv11 -> conv11
I0123 10:26:21.558609 27649 net.cpp:124] Setting up conv11
I0123 10:26:21.558614 27649 net.cpp:131] Top shape: 1 512 20 20 (204800)
I0123 10:26:21.558617 27649 net.cpp:139] Memory required for data: 79872000
I0123 10:26:21.558620 27649 layer_factory.hpp:77] Creating layer conv11/relu
I0123 10:26:21.558624 27649 net.cpp:86] Creating Layer conv11/relu
I0123 10:26:21.558626 27649 net.cpp:408] conv11/relu <- conv11
I0123 10:26:21.558629 27649 net.cpp:369] conv11/relu -> conv11 (in-place)
I0123 10:26:21.558632 27649 net.cpp:124] Setting up conv11/relu
I0123 10:26:21.558635 27649 net.cpp:131] Top shape: 1 512 20 20 (204800)
I0123 10:26:21.558637 27649 net.cpp:139] Memory required for data: 80691200
I0123 10:26:21.558640 27649 layer_factory.hpp:77] Creating layer conv11_conv11/relu_0_split
I0123 10:26:21.558645 27649 net.cpp:86] Creating Layer conv11_conv11/relu_0_split
I0123 10:26:21.558657 27649 net.cpp:408] conv11_conv11/relu_0_split <- conv11
I0123 10:26:21.558661 27649 net.cpp:382] conv11_conv11/relu_0_split -> conv11_conv11/relu_0_split_0
I0123 10:26:21.558665 27649 net.cpp:382] conv11_conv11/relu_0_split -> conv11_conv11/relu_0_split_1
I0123 10:26:21.558691 27649 net.cpp:124] Setting up conv11_conv11/relu_0_split
I0123 10:26:21.558696 27649 net.cpp:131] Top shape: 1 512 20 20 (204800)
I0123 10:26:21.558698 27649 net.cpp:131] Top shape: 1 512 20 20 (204800)
I0123 10:26:21.558701 27649 net.cpp:139] Memory required for data: 82329600
I0123 10:26:21.558703 27649 layer_factory.hpp:77] Creating layer conv12/dw
I0123 10:26:21.558709 27649 net.cpp:86] Creating Layer conv12/dw
I0123 10:26:21.558712 27649 net.cpp:408] conv12/dw <- conv11_conv11/relu_0_split_0
I0123 10:26:21.558720 27649 net.cpp:382] conv12/dw -> conv12/dw
I0123 10:26:21.558929 27649 net.cpp:124] Setting up conv12/dw
I0123 10:26:21.558934 27649 net.cpp:131] Top shape: 1 512 10 10 (51200)
I0123 10:26:21.558938 27649 net.cpp:139] Memory required for data: 82534400
I0123 10:26:21.558940 27649 layer_factory.hpp:77] Creating layer conv12/dw/relu
I0123 10:26:21.558943 27649 net.cpp:86] Creating Layer conv12/dw/relu
I0123 10:26:21.558946 27649 net.cpp:408] conv12/dw/relu <- conv12/dw
I0123 10:26:21.558949 27649 net.cpp:369] conv12/dw/relu -> conv12/dw (in-place)
I0123 10:26:21.558953 27649 net.cpp:124] Setting up conv12/dw/relu
I0123 10:26:21.558955 27649 net.cpp:131] Top shape: 1 512 10 10 (51200)
I0123 10:26:21.558957 27649 net.cpp:139] Memory required for data: 82739200
I0123 10:26:21.558959 27649 layer_factory.hpp:77] Creating layer conv12
I0123 10:26:21.558964 27649 net.cpp:86] Creating Layer conv12
I0123 10:26:21.558966 27649 net.cpp:408] conv12 <- conv12/dw
I0123 10:26:21.558971 27649 net.cpp:382] conv12 -> conv12
I0123 10:26:21.562862 27649 net.cpp:124] Setting up conv12
I0123 10:26:21.562875 27649 net.cpp:131] Top shape: 1 1024 10 10 (102400)
I0123 10:26:21.562878 27649 net.cpp:139] Memory required for data: 83148800
I0123 10:26:21.562882 27649 layer_factory.hpp:77] Creating layer conv12/relu
I0123 10:26:21.562887 27649 net.cpp:86] Creating Layer conv12/relu
I0123 10:26:21.562889 27649 net.cpp:408] conv12/relu <- conv12
I0123 10:26:21.562893 27649 net.cpp:369] conv12/relu -> conv12 (in-place)
I0123 10:26:21.562897 27649 net.cpp:124] Setting up conv12/relu
I0123 10:26:21.562901 27649 net.cpp:131] Top shape: 1 1024 10 10 (102400)
I0123 10:26:21.562902 27649 net.cpp:139] Memory required for data: 83558400
I0123 10:26:21.562904 27649 layer_factory.hpp:77] Creating layer conv13/dw
I0123 10:26:21.562911 27649 net.cpp:86] Creating Layer conv13/dw
I0123 10:26:21.562913 27649 net.cpp:408] conv13/dw <- conv12
I0123 10:26:21.562917 27649 net.cpp:382] conv13/dw -> conv13/dw
I0123 10:26:21.563134 27649 net.cpp:124] Setting up conv13/dw
I0123 10:26:21.563139 27649 net.cpp:131] Top shape: 1 1024 10 10 (102400)
I0123 10:26:21.563143 27649 net.cpp:139] Memory required for data: 83968000
I0123 10:26:21.563145 27649 layer_factory.hpp:77] Creating layer conv13/dw/relu
I0123 10:26:21.563148 27649 net.cpp:86] Creating Layer conv13/dw/relu
I0123 10:26:21.563151 27649 net.cpp:408] conv13/dw/relu <- conv13/dw
I0123 10:26:21.563154 27649 net.cpp:369] conv13/dw/relu -> conv13/dw (in-place)
I0123 10:26:21.563158 27649 net.cpp:124] Setting up conv13/dw/relu
I0123 10:26:21.563160 27649 net.cpp:131] Top shape: 1 1024 10 10 (102400)
I0123 10:26:21.563163 27649 net.cpp:139] Memory required for data: 84377600
I0123 10:26:21.563164 27649 layer_factory.hpp:77] Creating layer conv13
I0123 10:26:21.563169 27649 net.cpp:86] Creating Layer conv13
I0123 10:26:21.563172 27649 net.cpp:408] conv13 <- conv13/dw
I0123 10:26:21.563175 27649 net.cpp:382] conv13 -> conv13
I0123 10:26:21.570626 27649 net.cpp:124] Setting up conv13
I0123 10:26:21.570643 27649 net.cpp:131] Top shape: 1 1024 10 10 (102400)
I0123 10:26:21.570646 27649 net.cpp:139] Memory required for data: 84787200
I0123 10:26:21.570652 27649 layer_factory.hpp:77] Creating layer conv13/relu
I0123 10:26:21.570659 27649 net.cpp:86] Creating Layer conv13/relu
I0123 10:26:21.570679 27649 net.cpp:408] conv13/relu <- conv13
I0123 10:26:21.570698 27649 net.cpp:369] conv13/relu -> conv13 (in-place)
I0123 10:26:21.570704 27649 net.cpp:124] Setting up conv13/relu
I0123 10:26:21.570708 27649 net.cpp:131] Top shape: 1 1024 10 10 (102400)
I0123 10:26:21.570709 27649 net.cpp:139] Memory required for data: 85196800
I0123 10:26:21.570713 27649 layer_factory.hpp:77] Creating layer conv15/dw
I0123 10:26:21.570720 27649 net.cpp:86] Creating Layer conv15/dw
I0123 10:26:21.570724 27649 net.cpp:408] conv15/dw <- conv13
I0123 10:26:21.570729 27649 net.cpp:382] conv15/dw -> conv15/dw
I0123 10:26:21.571043 27649 net.cpp:124] Setting up conv15/dw
I0123 10:26:21.571048 27649 net.cpp:131] Top shape: 1 1024 10 10 (102400)
I0123 10:26:21.571050 27649 net.cpp:139] Memory required for data: 85606400
I0123 10:26:21.571054 27649 layer_factory.hpp:77] Creating layer conv15/dw/relu
I0123 10:26:21.571058 27649 net.cpp:86] Creating Layer conv15/dw/relu
I0123 10:26:21.571060 27649 net.cpp:408] conv15/dw/relu <- conv15/dw
I0123 10:26:21.571063 27649 net.cpp:369] conv15/dw/relu -> conv15/dw (in-place)
I0123 10:26:21.571066 27649 net.cpp:124] Setting up conv15/dw/relu
I0123 10:26:21.571069 27649 net.cpp:131] Top shape: 1 1024 10 10 (102400)
I0123 10:26:21.571071 27649 net.cpp:139] Memory required for data: 86016000
I0123 10:26:21.571074 27649 layer_factory.hpp:77] Creating layer conv15
I0123 10:26:21.571079 27649 net.cpp:86] Creating Layer conv15
I0123 10:26:21.571096 27649 net.cpp:408] conv15 <- conv15/dw
I0123 10:26:21.571099 27649 net.cpp:382] conv15 -> conv15
I0123 10:26:21.578575 27649 net.cpp:124] Setting up conv15
I0123 10:26:21.578593 27649 net.cpp:131] Top shape: 1 1024 10 10 (102400)
I0123 10:26:21.578595 27649 net.cpp:139] Memory required for data: 86425600
I0123 10:26:21.578600 27649 layer_factory.hpp:77] Creating layer conv15/relu
I0123 10:26:21.578608 27649 net.cpp:86] Creating Layer conv15/relu
I0123 10:26:21.578610 27649 net.cpp:408] conv15/relu <- conv15
I0123 10:26:21.578615 27649 net.cpp:369] conv15/relu -> conv15 (in-place)
I0123 10:26:21.578619 27649 net.cpp:124] Setting up conv15/relu
I0123 10:26:21.578622 27649 net.cpp:131] Top shape: 1 1024 10 10 (102400)
I0123 10:26:21.578624 27649 net.cpp:139] Memory required for data: 86835200
I0123 10:26:21.578627 27649 layer_factory.hpp:77] Creating layer conv15_conv15/relu_0_split
I0123 10:26:21.578646 27649 net.cpp:86] Creating Layer conv15_conv15/relu_0_split
I0123 10:26:21.578649 27649 net.cpp:408] conv15_conv15/relu_0_split <- conv15
I0123 10:26:21.578652 27649 net.cpp:382] conv15_conv15/relu_0_split -> conv15_conv15/relu_0_split_0
I0123 10:26:21.578661 27649 net.cpp:382] conv15_conv15/relu_0_split -> conv15_conv15/relu_0_split_1
I0123 10:26:21.578704 27649 net.cpp:124] Setting up conv15_conv15/relu_0_split
I0123 10:26:21.578709 27649 net.cpp:131] Top shape: 1 1024 10 10 (102400)
I0123 10:26:21.578712 27649 net.cpp:131] Top shape: 1 1024 10 10 (102400)
I0123 10:26:21.578714 27649 net.cpp:139] Memory required for data: 87654400
I0123 10:26:21.578716 27649 layer_factory.hpp:77] Creating layer upsample
I0123 10:26:21.578724 27649 net.cpp:86] Creating Layer upsample
I0123 10:26:21.578727 27649 net.cpp:408] upsample <- conv15_conv15/relu_0_split_0
I0123 10:26:21.578732 27649 net.cpp:382] upsample -> upsample
I0123 10:26:21.578886 27649 net.cpp:124] Setting up upsample
I0123 10:26:21.578891 27649 net.cpp:131] Top shape: 1 512 19 19 (184832)
I0123 10:26:21.578893 27649 net.cpp:139] Memory required for data: 88393728
I0123 10:26:21.578896 27649 layer_factory.hpp:77] Creating layer maxpool
I0123 10:26:21.578900 27649 net.cpp:86] Creating Layer maxpool
I0123 10:26:21.578903 27649 net.cpp:408] maxpool <- upsample
I0123 10:26:21.578907 27649 net.cpp:382] maxpool -> maxpool
I0123 10:26:21.578941 27649 net.cpp:124] Setting up maxpool
I0123 10:26:21.578946 27649 net.cpp:131] Top shape: 1 512 20 20 (204800)
I0123 10:26:21.578948 27649 net.cpp:139] Memory required for data: 89212928
I0123 10:26:21.578950 27649 layer_factory.hpp:77] Creating layer conv17/dw
I0123 10:26:21.578969 27649 net.cpp:86] Creating Layer conv17/dw
I0123 10:26:21.578971 27649 net.cpp:408] conv17/dw <- conv11_conv11/relu_0_split_1
I0123 10:26:21.578975 27649 net.cpp:382] conv17/dw -> conv17/dw
I0123 10:26:21.579227 27649 net.cpp:124] Setting up conv17/dw
I0123 10:26:21.579233 27649 net.cpp:131] Top shape: 1 512 20 20 (204800)
I0123 10:26:21.579236 27649 net.cpp:139] Memory required for data: 90032128
I0123 10:26:21.579239 27649 layer_factory.hpp:77] Creating layer conv17/dw/relu
I0123 10:26:21.579262 27649 net.cpp:86] Creating Layer conv17/dw/relu
I0123 10:26:21.579265 27649 net.cpp:408] conv17/dw/relu <- conv17/dw
I0123 10:26:21.579268 27649 net.cpp:369] conv17/dw/relu -> conv17/dw (in-place)
I0123 10:26:21.579272 27649 net.cpp:124] Setting up conv17/dw/relu
I0123 10:26:21.579275 27649 net.cpp:131] Top shape: 1 512 20 20 (204800)
I0123 10:26:21.579277 27649 net.cpp:139] Memory required for data: 90851328
I0123 10:26:21.579303 27649 layer_factory.hpp:77] Creating layer conv17
I0123 10:26:21.579306 27649 net.cpp:86] Creating Layer conv17
I0123 10:26:21.579309 27649 net.cpp:408] conv17 <- conv17/dw
I0123 10:26:21.579313 27649 net.cpp:382] conv17 -> conv17
I0123 10:26:21.581687 27649 net.cpp:124] Setting up conv17
I0123 10:26:21.581698 27649 net.cpp:131] Top shape: 1 512 20 20 (204800)
I0123 10:26:21.581701 27649 net.cpp:139] Memory required for data: 91670528
I0123 10:26:21.581704 27649 layer_factory.hpp:77] Creating layer conv17/relu
I0123 10:26:21.581710 27649 net.cpp:86] Creating Layer conv17/relu
I0123 10:26:21.581712 27649 net.cpp:408] conv17/relu <- conv17
I0123 10:26:21.581717 27649 net.cpp:369] conv17/relu -> conv17 (in-place)
I0123 10:26:21.581720 27649 net.cpp:124] Setting up conv17/relu
I0123 10:26:21.581723 27649 net.cpp:131] Top shape: 1 512 20 20 (204800)
I0123 10:26:21.581725 27649 net.cpp:139] Memory required for data: 92489728
I0123 10:26:21.581727 27649 layer_factory.hpp:77] Creating layer conv17/sum
I0123 10:26:21.581732 27649 net.cpp:86] Creating Layer conv17/sum
I0123 10:26:21.581733 27649 net.cpp:408] conv17/sum <- maxpool
I0123 10:26:21.581751 27649 net.cpp:408] conv17/sum <- conv17
I0123 10:26:21.581754 27649 net.cpp:382] conv17/sum -> conv17/sum
I0123 10:26:21.581773 27649 net.cpp:124] Setting up conv17/sum
I0123 10:26:21.581777 27649 net.cpp:131] Top shape: 1 512 20 20 (204800)
I0123 10:26:21.581792 27649 net.cpp:139] Memory required for data: 93308928
I0123 10:26:21.581794 27649 layer_factory.hpp:77] Creating layer conv18/dw
I0123 10:26:21.581801 27649 net.cpp:86] Creating Layer conv18/dw
I0123 10:26:21.581804 27649 net.cpp:408] conv18/dw <- conv17/sum
I0123 10:26:21.581807 27649 net.cpp:382] conv18/dw -> conv18/dw
I0123 10:26:21.582064 27649 net.cpp:124] Setting up conv18/dw
I0123 10:26:21.582069 27649 net.cpp:131] Top shape: 1 512 20 20 (204800)
I0123 10:26:21.582072 27649 net.cpp:139] Memory required for data: 94128128
I0123 10:26:21.582095 27649 layer_factory.hpp:77] Creating layer conv18/dw/relu
I0123 10:26:21.582099 27649 net.cpp:86] Creating Layer conv18/dw/relu
I0123 10:26:21.582103 27649 net.cpp:408] conv18/dw/relu <- conv18/dw
I0123 10:26:21.582105 27649 net.cpp:369] conv18/dw/relu -> conv18/dw (in-place)
I0123 10:26:21.582108 27649 net.cpp:124] Setting up conv18/dw/relu
I0123 10:26:21.582113 27649 net.cpp:131] Top shape: 1 512 20 20 (204800)
I0123 10:26:21.582115 27649 net.cpp:139] Memory required for data: 94947328
I0123 10:26:21.582140 27649 layer_factory.hpp:77] Creating layer conv18_new
I0123 10:26:21.582144 27649 net.cpp:86] Creating Layer conv18_new
I0123 10:26:21.582147 27649 net.cpp:408] conv18_new <- conv18/dw
I0123 10:26:21.582164 27649 net.cpp:382] conv18_new -> conv18_new
I0123 10:26:21.586092 27649 net.cpp:124] Setting up conv18_new
I0123 10:26:21.586105 27649 net.cpp:131] Top shape: 1 1024 20 20 (409600)
I0123 10:26:21.586108 27649 net.cpp:139] Memory required for data: 96585728
I0123 10:26:21.586112 27649 layer_factory.hpp:77] Creating layer conv18_new/relu
I0123 10:26:21.586118 27649 net.cpp:86] Creating Layer conv18_new/relu
I0123 10:26:21.586133 27649 net.cpp:408] conv18_new/relu <- conv18_new
I0123 10:26:21.586138 27649 net.cpp:369] conv18_new/relu -> conv18_new (in-place)
I0123 10:26:21.586141 27649 net.cpp:124] Setting up conv18_new/relu
I0123 10:26:21.586144 27649 net.cpp:131] Top shape: 1 1024 20 20 (409600)
I0123 10:26:21.586160 27649 net.cpp:139] Memory required for data: 98224128
I0123 10:26:21.586163 27649 layer_factory.hpp:77] Creating layer conv19
I0123 10:26:21.586170 27649 net.cpp:86] Creating Layer conv19
I0123 10:26:21.586172 27649 net.cpp:408] conv19 <- conv15_conv15/relu_0_split_1
I0123 10:26:21.586176 27649 net.cpp:382] conv19 -> conv19
I0123 10:26:21.586719 27649 net.cpp:124] Setting up conv19
I0123 10:26:21.586725 27649 net.cpp:131] Top shape: 1 75 10 10 (7500)
I0123 10:26:21.586727 27649 net.cpp:139] Memory required for data: 98254128
I0123 10:26:21.586731 27649 layer_factory.hpp:77] Creating layer conv20
I0123 10:26:21.586750 27649 net.cpp:86] Creating Layer conv20
I0123 10:26:21.586753 27649 net.cpp:408] conv20 <- conv18_new
I0123 10:26:21.586757 27649 net.cpp:382] conv20 -> conv20
I0123 10:26:21.587270 27649 net.cpp:124] Setting up conv20
I0123 10:26:21.587275 27649 net.cpp:131] Top shape: 1 75 20 20 (30000)
I0123 10:26:21.587277 27649 net.cpp:139] Memory required for data: 98374128
I0123 10:26:21.587280 27649 net.cpp:202] conv20 does not need backward computation.
I0123 10:26:21.587301 27649 net.cpp:202] conv19 does not need backward computation.
I0123 10:26:21.587303 27649 net.cpp:202] conv18_new/relu does not need backward computation.
I0123 10:26:21.587306 27649 net.cpp:202] conv18_new does not need backward computation.
…
