I0123 11:51:52.680150 30204 caffe.cpp:355] Use GPU with device ID 0
I0123 11:51:52.853601 30204 net.cpp:53] Initializing net from parameters: 
name: "remove_bn"
state {
  phase: TRAIN
  level: 0
  stage: ""
}
layer {
  name: "data"
  type: "Input"
  top: "data"
  input_param {
    shape {
      dim: 1
      dim: 3
      dim: 320
      dim: 320
    }
  }
}
layer {
  name: "conv0"
  type: "Convolution"
  bottom: "data"
  top: "conv0"
  param {
    lr_mult: 1
    decay_mult: 1
  }
  convolution_param {
    num_output: 32
    bias_term: true
    pad: 1
    kernel_size: 3
    stride: 2
    weight_filler {
      type: "msra"
    }
  }
}
layer {
  name: "conv0/relu"
  type: "ReLU"
  bottom: "conv0"
  top: "conv0"
}
layer {
  name: "conv1/dw"
  type: "DepthwiseConvolution"
  bottom: "conv0"
  top: "conv1/dw"
  param {
    lr_mult: 1
    decay_mult: 1
  }
  convolution_param {
    num_output: 32
    bias_term: true
    pad: 1
    kernel_size: 3
    group: 32
    weight_filler {
      type: "msra"
    }
    engine: CAFFE
  }
}
layer {
  name: "conv1/dw/relu"
  type: "ReLU"
  bottom: "conv1/dw"
  top: "conv1/dw"
}
layer {
  name: "conv1"
  type: "Convolution"
  bottom: "conv1/dw"
  top: "conv1"
  param {
    lr_mult: 1
    decay_mult: 1
  }
  convolution_param {
    num_output: 64
    bias_term: true
    kernel_size: 1
    weight_filler {
      type: "msra"
    }
  }
}
layer {
  name: "conv1/relu"
  type: "ReLU"
  bottom: "conv1"
  top: "conv1"
}
layer {
  name: "conv2/dw"
  type: "DepthwiseConvolution"
  bottom: "conv1"
  top: "conv2/dw"
  param {
    lr_mult: 1
    decay_mult: 1
  }
  convolution_param {
    num_output: 64
    bias_term: true
    pad: 1
    kernel_size: 3
    group: 64
    stride: 2
    weight_filler {
      type: "msra"
    }
    engine: CAFFE
  }
}
layer {
  name: "conv2/dw/relu"
  type: "ReLU"
  bottom: "conv2/dw"
  top: "conv2/dw"
}
layer {
  name: "conv2"
  type: "Convolution"
  bottom: "conv2/dw"
  top: "conv2"
  param {
    lr_mult: 1
    decay_mult: 1
  }
  convolution_param {
    num_output: 128
    bias_term: true
    kernel_size: 1
    weight_filler {
      type: "msra"
    }
  }
}
layer {
  name: "conv2/relu"
  type: "ReLU"
  bottom: "conv2"
  top: "conv2"
}
layer {
  name: "conv3/dw"
  type: "DepthwiseConvolution"
  bottom: "conv2"
  top: "conv3/dw"
  param {
    lr_mult: 1
    decay_mult: 1
  }
  convolution_param {
    num_output: 128
    bias_term: true
    pad: 1
    kernel_size: 3
    group: 128
    weight_filler {
      type: "msra"
    }
    engine: CAFFE
  }
}
layer {
  name: "conv3/dw/relu"
  type: "ReLU"
  bottom: "conv3/dw"
  top: "conv3/dw"
}
layer {
  name: "conv3"
  type: "Convolution"
  bottom: "conv3/dw"
  top: "conv3"
  param {
    lr_mult: 1
    decay_mult: 1
  }
  convolution_param {
    num_output: 128
    bias_term: true
    kernel_size: 1
    weight_filler {
      type: "msra"
    }
  }
}
layer {
  name: "conv3/relu"
  type: "ReLU"
  bottom: "conv3"
  top: "conv3"
}
layer {
  name: "conv4/dw"
  type: "DepthwiseConvolution"
  bottom: "conv3"
  top: "conv4/dw"
  param {
    lr_mult: 1
    decay_mult: 1
  }
  convolution_param {
    num_output: 128
    bias_term: true
    pad: 1
    kernel_size: 3
    group: 128
    stride: 2
    weight_filler {
      type: "msra"
    }
    engine: CAFFE
  }
}
layer {
  name: "conv4/dw/relu"
  type: "ReLU"
  bottom: "conv4/dw"
  top: "conv4/dw"
}
layer {
  name: "conv4"
  type: "Convolution"
  bottom: "conv4/dw"
  top: "conv4"
  param {
    lr_mult: 1
    decay_mult: 1
  }
  convolution_param {
    num_output: 256
    bias_term: true
    kernel_size: 1
    weight_filler {
      type: "msra"
    }
  }
}
layer {
  name: "conv4/relu"
  type: "ReLU"
  bottom: "conv4"
  top: "conv4"
}
layer {
  name: "conv5/dw"
  type: "DepthwiseConvolution"
  bottom: "conv4"
  top: "conv5/dw"
  param {
    lr_mult: 1
    decay_mult: 1
  }
  convolution_param {
    num_output: 256
    bias_term: true
    pad: 1
    kernel_size: 3
    group: 256
    weight_filler {
      type: "msra"
    }
    engine: CAFFE
  }
}
layer {
  name: "conv5/dw/relu"
  type: "ReLU"
  bottom: "conv5/dw"
  top: "conv5/dw"
}
layer {
  name: "conv5"
  type: "Convolution"
  bottom: "conv5/dw"
  top: "conv5"
  param {
    lr_mult: 1
    decay_mult: 1
  }
  convolution_param {
    num_output: 256
    bias_term: true
    kernel_size: 1
    weight_filler {
      type: "msra"
    }
  }
}
layer {
  name: "conv5/relu"
  type: "ReLU"
  bottom: "conv5"
  top: "conv5"
}
layer {
  name: "conv6/dw"
  type: "DepthwiseConvolution"
  bottom: "conv5"
  top: "conv6/dw"
  param {
    lr_mult: 1
    decay_mult: 1
  }
  convolution_param {
    num_output: 256
    bias_term: true
    pad: 1
    kernel_size: 3
    group: 256
    stride: 2
    weight_filler {
      type: "msra"
    }
    engine: CAFFE
  }
}
layer {
  name: "conv6/dw/relu"
  type: "ReLU"
  bottom: "conv6/dw"
  top: "conv6/dw"
}
layer {
  name: "conv6"
  type: "Convolution"
  bottom: "conv6/dw"
  top: "conv6"
  param {
    lr_mult: 1
    decay_mult: 1
  }
  convolution_param {
    num_output: 512
    bias_term: true
    kernel_size: 1
    weight_filler {
      type: "msra"
    }
  }
}
layer {
  name: "conv6/relu"
  type: "ReLU"
  bottom: "conv6"
  top: "conv6"
}
layer {
  name: "conv7/dw"
  type: "DepthwiseConvolution"
  bottom: "conv6"
  top: "conv7/dw"
  param {
    lr_mult: 1
    decay_mult: 1
  }
  convolution_param {
    num_output: 512
    bias_term: true
    pad: 1
    kernel_size: 3
    group: 512
    weight_filler {
      type: "msra"
    }
    engine: CAFFE
  }
}
layer {
  name: "conv7/dw/relu"
  type: "ReLU"
  bottom: "conv7/dw"
  top: "conv7/dw"
}
layer {
  name: "conv7"
  type: "Convolution"
  bottom: "conv7/dw"
  top: "conv7"
  param {
    lr_mult: 1
    decay_mult: 1
  }
  convolution_param {
    num_output: 512
    bias_term: true
    kernel_size: 1
    weight_filler {
      type: "msra"
    }
  }
}
layer {
  name: "conv7/relu"
  type: "ReLU"
  bottom: "conv7"
  top: "conv7"
}
layer {
  name: "conv8/dw"
  type: "DepthwiseConvolution"
  bottom: "conv7"
  top: "conv8/dw"
  param {
    lr_mult: 1
    decay_mult: 1
  }
  convolution_param {
    num_output: 512
    bias_term: true
    pad: 1
    kernel_size: 3
    group: 512
    weight_filler {
      type: "msra"
    }
    engine: CAFFE
  }
}
layer {
  name: "conv8/dw/relu"
  type: "ReLU"
  bottom: "conv8/dw"
  top: "conv8/dw"
}
layer {
  name: "conv8"
  type: "Convolution"
  bottom: "conv8/dw"
  top: "conv8"
  param {
    lr_mult: 1
    decay_mult: 1
  }
  convolution_param {
    num_output: 512
    bias_term: true
    kernel_size: 1
    weight_filler {
      type: "msra"
    }
  }
}
layer {
  name: "conv8/relu"
  type: "ReLU"
  bottom: "conv8"
  top: "conv8"
}
layer {
  name: "conv9/dw"
  type: "DepthwiseConvolution"
  bottom: "conv8"
  top: "conv9/dw"
  param {
    lr_mult: 1
    decay_mult: 1
  }
  convolution_param {
    num_output: 512
    bias_term: true
    pad: 1
    kernel_size: 3
    group: 512
    weight_filler {
      type: "msra"
    }
    engine: CAFFE
  }
}
layer {
  name: "conv9/dw/relu"
  type: "ReLU"
  bottom: "conv9/dw"
  top: "conv9/dw"
}
layer {
  name: "conv9"
  type: "Convolution"
  bottom: "conv9/dw"
  top: "conv9"
  param {
    lr_mult: 1
    decay_mult: 1
  }
  convolution_param {
    num_output: 512
    bias_term: true
    kernel_size: 1
    weight_filler {
      type: "msra"
    }
  }
}
layer {
  name: "conv9/relu"
  type: "ReLU"
  bottom: "conv9"
  top: "conv9"
}
layer {
  name: "conv10/dw"
  type: "DepthwiseConvolution"
  bottom: "conv9"
  top: "conv10/dw"
  param {
    lr_mult: 1
    decay_mult: 1
  }
  convolution_param {
    num_output: 512
    bias_term: true
    pad: 1
    kernel_size: 3
    group: 512
    weight_filler {
      type: "msra"
    }
    engine: CAFFE
  }
}
layer {
  name: "conv10/dw/relu"
  type: "ReLU"
  bottom: "conv10/dw"
  top: "conv10/dw"
}
layer {
  name: "conv10"
  type: "Convolution"
  bottom: "conv10/dw"
  top: "conv10"
  param {
    lr_mult: 1
    decay_mult: 1
  }
  convolution_param {
    num_output: 512
    bias_term: true
    kernel_size: 1
    weight_filler {
      type: "msra"
    }
  }
}
layer {
  name: "conv10/relu"
  type: "ReLU"
  bottom: "conv10"
  top: "conv10"
}
layer {
  name: "conv11/dw"
  type: "DepthwiseConvolution"
  bottom: "conv10"
  top: "conv11/dw"
  param {
    lr_mult: 1
    decay_mult: 1
  }
  convolution_param {
    num_output: 512
    bias_term: true
    pad: 1
    kernel_size: 3
    group: 512
    weight_filler {
      type: "msra"
    }
    engine: CAFFE
  }
}
layer {
  name: "conv11/dw/relu"
  type: "ReLU"
  bottom: "conv11/dw"
  top: "conv11/dw"
}
layer {
  name: "conv11"
  type: "Convolution"
  bottom: "conv11/dw"
  top: "conv11"
  param {
    lr_mult: 1
    decay_mult: 1
  }
  convolution_param {
    num_output: 512
    bias_term: true
    kernel_size: 1
    weight_filler {
      type: "msra"
    }
  }
}
layer {
  name: "conv11/relu"
  type: "ReLU"
  bottom: "conv11"
  top: "conv11"
}
layer {
  name: "conv12/dw"
  type: "DepthwiseConvolution"
  bottom: "conv11"
  top: "conv12/dw"
  param {
    lr_mult: 1
    decay_mult: 1
  }
  convolution_param {
    num_output: 512
    bias_term: true
    pad: 1
    kernel_size: 3
    group: 512
    stride: 2
    weight_filler {
      type: "msra"
    }
    engine: CAFFE
  }
}
layer {
  name: "conv12/dw/relu"
  type: "ReLU"
  bottom: "conv12/dw"
  top: "conv12/dw"
}
layer {
  name: "conv12"
  type: "Convolution"
  bottom: "conv12/dw"
  top: "conv12"
  param {
    lr_mult: 1
    decay_mult: 1
  }
  convolution_param {
    num_output: 1024
    bias_term: true
    kernel_size: 1
    weight_filler {
      type: "msra"
    }
  }
}
layer {
  name: "conv12/relu"
  type: "ReLU"
  bottom: "conv12"
  top: "conv12"
}
layer {
  name: "conv13/dw"
  type: "DepthwiseConvolution"
  bottom: "conv12"
  top: "conv13/dw"
  param {
    lr_mult: 1
    decay_mult: 1
  }
  convolution_param {
    num_output: 1024
    bias_term: true
    pad: 1
    kernel_size: 3
    group: 1024
    weight_filler {
      type: "msra"
    }
    engine: CAFFE
  }
}
layer {
  name: "conv13/dw/relu"
  type: "ReLU"
  bottom: "conv13/dw"
  top: "conv13/dw"
}
layer {
  name: "conv13"
  type: "Convolution"
  bottom: "conv13/dw"
  top: "conv13"
  param {
    lr_mult: 1
    decay_mult: 1
  }
  convolution_param {
    num_output: 1024
    bias_term: true
    kernel_size: 1
    weight_filler {
      type: "msra"
    }
  }
}
layer {
  name: "conv13/relu"
  type: "ReLU"
  bottom: "conv13"
  top: "conv13"
}
layer {
  name: "conv15/dw"
  type: "DepthwiseConvolution"
  bottom: "conv13"
  top: "conv15/dw"
  param {
    lr_mult: 1
    decay_mult: 1
  }
  convolution_param {
    num_output: 1024
    bias_term: true
    pad: 1
    kernel_size: 3
    group: 1024
    weight_filler {
      type: "msra"
    }
    engine: CAFFE
  }
}
layer {
  name: "conv15/dw/relu"
  type: "ReLU"
  bottom: "conv15/dw"
  top: "conv15/dw"
}
layer {
  name: "conv15"
  type: "Convolution"
  bottom: "conv15/dw"
  top: "conv15"
  param {
    lr_mult: 1
    decay_mult: 1
  }
  convolution_param {
    num_output: 1024
    bias_term: true
    kernel_size: 1
    weight_filler {
      type: "msra"
    }
  }
}
layer {
  name: "conv15/relu"
  type: "ReLU"
  bottom: "conv15"
  top: "conv15"
}
layer {
  name: "upsample"
  type: "Deconvolution"
  bottom: "conv15"
  top: "upsample"
  param {
    lr_mult: 0
    decay_mult: 0
  }
  convolution_param {
    num_output: 512
    bias_term: false
    pad: 0
    kernel_size: 1
    group: 512
    stride: 2
    weight_filler {
      type: "constant"
      value: 1
    }
  }
}
layer {
  name: "maxpool"
  type: "Pooling"
  bottom: "upsample"
  top: "maxpool"
  pooling_param {
    pool: MAX
    kernel_size: 2
    stride: 1
    pad: 1
  }
}
layer {
  name: "conv17/dw"
  type: "DepthwiseConvolution"
  bottom: "conv11"
  top: "conv17/dw"
  param {
    lr_mult: 1
    decay_mult: 1
  }
  convolution_param {
    num_output: 512
    bias_term: true
    pad: 1
    kernel_size: 3
    group: 512
    weight_filler {
      type: "msra"
    }
    engine: CAFFE
  }
}
layer {
  name: "conv17/dw/relu"
  type: "ReLU"
  bottom: "conv17/dw"
  top: "conv17/dw"
}
layer {
  name: "conv17"
  type: "Convolution"
  bottom: "conv17/dw"
  top: "conv17"
  param {
    lr_mult: 1
    decay_mult: 1
  }
  convolution_param {
    num_output: 512
    bias_term: true
    kernel_size: 1
    weight_filler {
      type: "msra"
    }
  }
}
layer {
  name: "conv17/relu"
  type: "ReLU"
  bottom: "conv17"
  top: "conv17"
}
layer {
  name: "conv17/sum"
  type: "Eltwise"
  bottom: "maxpool"
  bottom: "conv17"
  top: "conv17/sum"
}
layer {
  name: "conv18/dw"
  type: "DepthwiseConvolution"
  bottom: "conv17/sum"
  top: "conv18/dw"
  param {
    lr_mult: 1
    decay_mult: 1
  }
  convolution_param {
    num_output: 512
    bias_term: true
    pad: 1
    kernel_size: 3
    group: 512
    weight_filler {
      type: "msra"
    }
    engine: CAFFE
  }
}
layer {
  name: "conv18/dw/relu"
  type: "ReLU"
  bottom: "conv18/dw"
  top: "conv18/dw"
}
layer {
  name: "conv18_new"
  type: "Convolution"
  bottom: "conv18/dw"
  top: "conv18_new"
  param {
    lr_mult: 1
    decay_mult: 1
  }
  convolution_param {
    num_output: 1024
    bias_term: true
    kernel_size: 1
    weight_filler {
      type: "msra"
    }
  }
}
layer {
  name: "conv18_new/relu"
  type: "ReLU"
  bottom: "conv18_new"
  top: "conv18_new"
}
layer {
  name: "conv19"
  type: "Convolution"
  bottom: "conv15"
  top: "conv19"
  param {
    lr_mult: 1
    decay_mult: 1
  }
  param {
    lr_mult: 2
    decay_mult: 0
  }
  convolution_param {
    num_output: 75
    bias_term: true
    pad: 0
    kernel_size: 1
    stride: 1
    weight_filler {
      type: "xavier"
    }
    bias_filler {
      value: 0
    }
  }
}
layer {
  name: "conv20"
  type: "Convolution"
  bottom: "conv18_new"
  top: "conv20"
  param {
    lr_mult: 1
    decay_mult: 1
  }
  param {
    lr_mult: 2
    decay_mult: 0
  }
  convolution_param {
    num_output: 75
    bias_term: true
    pad: 0
    kernel_size: 1
    stride: 1
    weight_filler {
      type: "xavier"
    }
    bias_filler {
      value: 0
    }
  }
}
layer {
  name: "detection_out"
  type: "Yolov3DetectionOutput"
  bottom: "conv19"
  bottom: "conv20"
  top: "detection_out"
  yolov3_detection_output_param {
    num_classes: 20
    confidence_threshold: 0.3
    nms_threshold: 0.45
    biases: 10
    biases: 14
    biases: 23
    biases: 27
    biases: 37
    biases: 58
    biases: 81
    biases: 82
    biases: 135
    biases: 169
    biases: 344
    biases: 319
    anchors_scale: 32
    anchors_scale: 16
    mask_group_num: 2
    mask: 3
    mask: 4
    mask: 5
    mask: 0
    mask: 1
    mask: 2
  }
}
I0123 11:51:52.853834 30204 layer_factory.hpp:77] Creating layer data
I0123 11:51:52.853847 30204 net.cpp:86] Creating Layer data
I0123 11:51:52.853852 30204 net.cpp:382] data -> data
I0123 11:51:52.864717 30204 net.cpp:124] Setting up data
I0123 11:51:52.864754 30204 net.cpp:131] Top shape: 1 3 320 320 (307200)
I0123 11:51:52.864758 30204 net.cpp:139] Memory required for data: 1228800
I0123 11:51:52.864766 30204 layer_factory.hpp:77] Creating layer conv0
I0123 11:51:52.864785 30204 net.cpp:86] Creating Layer conv0
I0123 11:51:52.864792 30204 net.cpp:408] conv0 <- data
I0123 11:51:52.864799 30204 net.cpp:382] conv0 -> conv0
I0123 11:51:52.866101 30204 net.cpp:124] Setting up conv0
I0123 11:51:52.866113 30204 net.cpp:131] Top shape: 1 32 160 160 (819200)
I0123 11:51:52.866117 30204 net.cpp:139] Memory required for data: 4505600
I0123 11:51:52.866143 30204 layer_factory.hpp:77] Creating layer conv0/relu
I0123 11:51:52.866152 30204 net.cpp:86] Creating Layer conv0/relu
I0123 11:51:52.866154 30204 net.cpp:408] conv0/relu <- conv0
I0123 11:51:52.866158 30204 net.cpp:369] conv0/relu -> conv0 (in-place)
I0123 11:51:52.866163 30204 net.cpp:124] Setting up conv0/relu
I0123 11:51:52.866168 30204 net.cpp:131] Top shape: 1 32 160 160 (819200)
I0123 11:51:52.866169 30204 net.cpp:139] Memory required for data: 7782400
I0123 11:51:52.866171 30204 layer_factory.hpp:77] Creating layer conv1/dw
I0123 11:51:52.866178 30204 net.cpp:86] Creating Layer conv1/dw
I0123 11:51:52.866181 30204 net.cpp:408] conv1/dw <- conv0
I0123 11:51:52.866184 30204 net.cpp:382] conv1/dw -> conv1/dw
I0123 11:51:52.866395 30204 net.cpp:124] Setting up conv1/dw
I0123 11:51:52.866401 30204 net.cpp:131] Top shape: 1 32 160 160 (819200)
I0123 11:51:52.866403 30204 net.cpp:139] Memory required for data: 11059200
I0123 11:51:52.866420 30204 layer_factory.hpp:77] Creating layer conv1/dw/relu
I0123 11:51:52.866426 30204 net.cpp:86] Creating Layer conv1/dw/relu
I0123 11:51:52.866428 30204 net.cpp:408] conv1/dw/relu <- conv1/dw
I0123 11:51:52.866431 30204 net.cpp:369] conv1/dw/relu -> conv1/dw (in-place)
I0123 11:51:52.866436 30204 net.cpp:124] Setting up conv1/dw/relu
I0123 11:51:52.866438 30204 net.cpp:131] Top shape: 1 32 160 160 (819200)
I0123 11:51:52.866441 30204 net.cpp:139] Memory required for data: 14336000
I0123 11:51:52.866442 30204 layer_factory.hpp:77] Creating layer conv1
I0123 11:51:52.866447 30204 net.cpp:86] Creating Layer conv1
I0123 11:51:52.866449 30204 net.cpp:408] conv1 <- conv1/dw
I0123 11:51:52.866453 30204 net.cpp:382] conv1 -> conv1
I0123 11:51:52.867149 30204 net.cpp:124] Setting up conv1
I0123 11:51:52.867158 30204 net.cpp:131] Top shape: 1 64 160 160 (1638400)
I0123 11:51:52.867161 30204 net.cpp:139] Memory required for data: 20889600
I0123 11:51:52.867180 30204 layer_factory.hpp:77] Creating layer conv1/relu
I0123 11:51:52.867185 30204 net.cpp:86] Creating Layer conv1/relu
I0123 11:51:52.867188 30204 net.cpp:408] conv1/relu <- conv1
I0123 11:51:52.867192 30204 net.cpp:369] conv1/relu -> conv1 (in-place)
I0123 11:51:52.867195 30204 net.cpp:124] Setting up conv1/relu
I0123 11:51:52.867199 30204 net.cpp:131] Top shape: 1 64 160 160 (1638400)
I0123 11:51:52.867202 30204 net.cpp:139] Memory required for data: 27443200
I0123 11:51:52.867203 30204 layer_factory.hpp:77] Creating layer conv2/dw
I0123 11:51:52.867208 30204 net.cpp:86] Creating Layer conv2/dw
I0123 11:51:52.867210 30204 net.cpp:408] conv2/dw <- conv1
I0123 11:51:52.867216 30204 net.cpp:382] conv2/dw -> conv2/dw
I0123 11:51:52.867954 30204 net.cpp:124] Setting up conv2/dw
I0123 11:51:52.867964 30204 net.cpp:131] Top shape: 1 64 80 80 (409600)
I0123 11:51:52.867966 30204 net.cpp:139] Memory required for data: 29081600
I0123 11:51:52.867970 30204 layer_factory.hpp:77] Creating layer conv2/dw/relu
I0123 11:51:52.867990 30204 net.cpp:86] Creating Layer conv2/dw/relu
I0123 11:51:52.867992 30204 net.cpp:408] conv2/dw/relu <- conv2/dw
I0123 11:51:52.867995 30204 net.cpp:369] conv2/dw/relu -> conv2/dw (in-place)
I0123 11:51:52.868000 30204 net.cpp:124] Setting up conv2/dw/relu
I0123 11:51:52.868005 30204 net.cpp:131] Top shape: 1 64 80 80 (409600)
I0123 11:51:52.868006 30204 net.cpp:139] Memory required for data: 30720000
I0123 11:51:52.868008 30204 layer_factory.hpp:77] Creating layer conv2
I0123 11:51:52.868043 30204 net.cpp:86] Creating Layer conv2
I0123 11:51:52.868047 30204 net.cpp:408] conv2 <- conv2/dw
I0123 11:51:52.868050 30204 net.cpp:382] conv2 -> conv2
I0123 11:51:52.868296 30204 net.cpp:124] Setting up conv2
I0123 11:51:52.868301 30204 net.cpp:131] Top shape: 1 128 80 80 (819200)
I0123 11:51:52.868304 30204 net.cpp:139] Memory required for data: 33996800
I0123 11:51:52.868309 30204 layer_factory.hpp:77] Creating layer conv2/relu
I0123 11:51:52.868326 30204 net.cpp:86] Creating Layer conv2/relu
I0123 11:51:52.868329 30204 net.cpp:408] conv2/relu <- conv2
I0123 11:51:52.868331 30204 net.cpp:369] conv2/relu -> conv2 (in-place)
I0123 11:51:52.868335 30204 net.cpp:124] Setting up conv2/relu
I0123 11:51:52.868360 30204 net.cpp:131] Top shape: 1 128 80 80 (819200)
I0123 11:51:52.868361 30204 net.cpp:139] Memory required for data: 37273600
I0123 11:51:52.868363 30204 layer_factory.hpp:77] Creating layer conv3/dw
I0123 11:51:52.868368 30204 net.cpp:86] Creating Layer conv3/dw
I0123 11:51:52.868387 30204 net.cpp:408] conv3/dw <- conv2
I0123 11:51:52.868391 30204 net.cpp:382] conv3/dw -> conv3/dw
I0123 11:51:52.868594 30204 net.cpp:124] Setting up conv3/dw
I0123 11:51:52.868599 30204 net.cpp:131] Top shape: 1 128 80 80 (819200)
I0123 11:51:52.868602 30204 net.cpp:139] Memory required for data: 40550400
I0123 11:51:52.868605 30204 layer_factory.hpp:77] Creating layer conv3/dw/relu
I0123 11:51:52.868608 30204 net.cpp:86] Creating Layer conv3/dw/relu
I0123 11:51:52.868610 30204 net.cpp:408] conv3/dw/relu <- conv3/dw
I0123 11:51:52.868623 30204 net.cpp:369] conv3/dw/relu -> conv3/dw (in-place)
I0123 11:51:52.868628 30204 net.cpp:124] Setting up conv3/dw/relu
I0123 11:51:52.868630 30204 net.cpp:131] Top shape: 1 128 80 80 (819200)
I0123 11:51:52.868633 30204 net.cpp:139] Memory required for data: 43827200
I0123 11:51:52.868649 30204 layer_factory.hpp:77] Creating layer conv3
I0123 11:51:52.868654 30204 net.cpp:86] Creating Layer conv3
I0123 11:51:52.868656 30204 net.cpp:408] conv3 <- conv3/dw
I0123 11:51:52.868660 30204 net.cpp:382] conv3 -> conv3
I0123 11:51:52.868909 30204 net.cpp:124] Setting up conv3
I0123 11:51:52.868916 30204 net.cpp:131] Top shape: 1 128 80 80 (819200)
I0123 11:51:52.868917 30204 net.cpp:139] Memory required for data: 47104000
I0123 11:51:52.868921 30204 layer_factory.hpp:77] Creating layer conv3/relu
I0123 11:51:52.868926 30204 net.cpp:86] Creating Layer conv3/relu
I0123 11:51:52.868927 30204 net.cpp:408] conv3/relu <- conv3
I0123 11:51:52.868930 30204 net.cpp:369] conv3/relu -> conv3 (in-place)
I0123 11:51:52.868933 30204 net.cpp:124] Setting up conv3/relu
I0123 11:51:52.868937 30204 net.cpp:131] Top shape: 1 128 80 80 (819200)
I0123 11:51:52.868938 30204 net.cpp:139] Memory required for data: 50380800
I0123 11:51:52.868940 30204 layer_factory.hpp:77] Creating layer conv4/dw
I0123 11:51:52.868944 30204 net.cpp:86] Creating Layer conv4/dw
I0123 11:51:52.868947 30204 net.cpp:408] conv4/dw <- conv3
I0123 11:51:52.868950 30204 net.cpp:382] conv4/dw -> conv4/dw
I0123 11:51:52.869123 30204 net.cpp:124] Setting up conv4/dw
I0123 11:51:52.869129 30204 net.cpp:131] Top shape: 1 128 40 40 (204800)
I0123 11:51:52.869132 30204 net.cpp:139] Memory required for data: 51200000
I0123 11:51:52.869134 30204 layer_factory.hpp:77] Creating layer conv4/dw/relu
I0123 11:51:52.869139 30204 net.cpp:86] Creating Layer conv4/dw/relu
I0123 11:51:52.869143 30204 net.cpp:408] conv4/dw/relu <- conv4/dw
I0123 11:51:52.869145 30204 net.cpp:369] conv4/dw/relu -> conv4/dw (in-place)
I0123 11:51:52.869148 30204 net.cpp:124] Setting up conv4/dw/relu
I0123 11:51:52.869151 30204 net.cpp:131] Top shape: 1 128 40 40 (204800)
I0123 11:51:52.869153 30204 net.cpp:139] Memory required for data: 52019200
I0123 11:51:52.869155 30204 layer_factory.hpp:77] Creating layer conv4
I0123 11:51:52.869160 30204 net.cpp:86] Creating Layer conv4
I0123 11:51:52.869163 30204 net.cpp:408] conv4 <- conv4/dw
I0123 11:51:52.869179 30204 net.cpp:382] conv4 -> conv4
I0123 11:51:52.869546 30204 net.cpp:124] Setting up conv4
I0123 11:51:52.869552 30204 net.cpp:131] Top shape: 1 256 40 40 (409600)
I0123 11:51:52.869554 30204 net.cpp:139] Memory required for data: 53657600
I0123 11:51:52.869558 30204 layer_factory.hpp:77] Creating layer conv4/relu
I0123 11:51:52.869577 30204 net.cpp:86] Creating Layer conv4/relu
I0123 11:51:52.869580 30204 net.cpp:408] conv4/relu <- conv4
I0123 11:51:52.869582 30204 net.cpp:369] conv4/relu -> conv4 (in-place)
I0123 11:51:52.869586 30204 net.cpp:124] Setting up conv4/relu
I0123 11:51:52.869590 30204 net.cpp:131] Top shape: 1 256 40 40 (409600)
I0123 11:51:52.869591 30204 net.cpp:139] Memory required for data: 55296000
I0123 11:51:52.869593 30204 layer_factory.hpp:77] Creating layer conv5/dw
I0123 11:51:52.869598 30204 net.cpp:86] Creating Layer conv5/dw
I0123 11:51:52.869602 30204 net.cpp:408] conv5/dw <- conv4
I0123 11:51:52.869606 30204 net.cpp:382] conv5/dw -> conv5/dw
I0123 11:51:52.869799 30204 net.cpp:124] Setting up conv5/dw
I0123 11:51:52.869804 30204 net.cpp:131] Top shape: 1 256 40 40 (409600)
I0123 11:51:52.869818 30204 net.cpp:139] Memory required for data: 56934400
I0123 11:51:52.869822 30204 layer_factory.hpp:77] Creating layer conv5/dw/relu
I0123 11:51:52.869824 30204 net.cpp:86] Creating Layer conv5/dw/relu
I0123 11:51:52.869828 30204 net.cpp:408] conv5/dw/relu <- conv5/dw
I0123 11:51:52.869832 30204 net.cpp:369] conv5/dw/relu -> conv5/dw (in-place)
I0123 11:51:52.869834 30204 net.cpp:124] Setting up conv5/dw/relu
I0123 11:51:52.869837 30204 net.cpp:131] Top shape: 1 256 40 40 (409600)
I0123 11:51:52.869839 30204 net.cpp:139] Memory required for data: 58572800
I0123 11:51:52.869848 30204 layer_factory.hpp:77] Creating layer conv5
I0123 11:51:52.869851 30204 net.cpp:86] Creating Layer conv5
I0123 11:51:52.869855 30204 net.cpp:408] conv5 <- conv5/dw
I0123 11:51:52.869859 30204 net.cpp:382] conv5 -> conv5
I0123 11:51:52.870434 30204 net.cpp:124] Setting up conv5
I0123 11:51:52.870440 30204 net.cpp:131] Top shape: 1 256 40 40 (409600)
I0123 11:51:52.870441 30204 net.cpp:139] Memory required for data: 60211200
I0123 11:51:52.870445 30204 layer_factory.hpp:77] Creating layer conv5/relu
I0123 11:51:52.870462 30204 net.cpp:86] Creating Layer conv5/relu
I0123 11:51:52.870465 30204 net.cpp:408] conv5/relu <- conv5
I0123 11:51:52.870467 30204 net.cpp:369] conv5/relu -> conv5 (in-place)
I0123 11:51:52.870471 30204 net.cpp:124] Setting up conv5/relu
I0123 11:51:52.870473 30204 net.cpp:131] Top shape: 1 256 40 40 (409600)
I0123 11:51:52.870476 30204 net.cpp:139] Memory required for data: 61849600
I0123 11:51:52.870477 30204 layer_factory.hpp:77] Creating layer conv6/dw
I0123 11:51:52.870482 30204 net.cpp:86] Creating Layer conv6/dw
I0123 11:51:52.870486 30204 net.cpp:408] conv6/dw <- conv5
I0123 11:51:52.870489 30204 net.cpp:382] conv6/dw -> conv6/dw
I0123 11:51:52.870663 30204 net.cpp:124] Setting up conv6/dw
I0123 11:51:52.870668 30204 net.cpp:131] Top shape: 1 256 20 20 (102400)
I0123 11:51:52.870683 30204 net.cpp:139] Memory required for data: 62259200
I0123 11:51:52.870687 30204 layer_factory.hpp:77] Creating layer conv6/dw/relu
I0123 11:51:52.870690 30204 net.cpp:86] Creating Layer conv6/dw/relu
I0123 11:51:52.870692 30204 net.cpp:408] conv6/dw/relu <- conv6/dw
I0123 11:51:52.870695 30204 net.cpp:369] conv6/dw/relu -> conv6/dw (in-place)
I0123 11:51:52.870698 30204 net.cpp:124] Setting up conv6/dw/relu
I0123 11:51:52.870702 30204 net.cpp:131] Top shape: 1 256 20 20 (102400)
I0123 11:51:52.870703 30204 net.cpp:139] Memory required for data: 62668800
I0123 11:51:52.870707 30204 layer_factory.hpp:77] Creating layer conv6
I0123 11:51:52.870710 30204 net.cpp:86] Creating Layer conv6
I0123 11:51:52.870712 30204 net.cpp:408] conv6 <- conv6/dw
I0123 11:51:52.870715 30204 net.cpp:382] conv6 -> conv6
I0123 11:51:52.872263 30204 net.cpp:124] Setting up conv6
I0123 11:51:52.872272 30204 net.cpp:131] Top shape: 1 512 20 20 (204800)
I0123 11:51:52.872275 30204 net.cpp:139] Memory required for data: 63488000
I0123 11:51:52.872293 30204 layer_factory.hpp:77] Creating layer conv6/relu
I0123 11:51:52.872298 30204 net.cpp:86] Creating Layer conv6/relu
I0123 11:51:52.872300 30204 net.cpp:408] conv6/relu <- conv6
I0123 11:51:52.872304 30204 net.cpp:369] conv6/relu -> conv6 (in-place)
I0123 11:51:52.872308 30204 net.cpp:124] Setting up conv6/relu
I0123 11:51:52.872311 30204 net.cpp:131] Top shape: 1 512 20 20 (204800)
I0123 11:51:52.872313 30204 net.cpp:139] Memory required for data: 64307200
I0123 11:51:52.872315 30204 layer_factory.hpp:77] Creating layer conv7/dw
I0123 11:51:52.872320 30204 net.cpp:86] Creating Layer conv7/dw
I0123 11:51:52.872323 30204 net.cpp:408] conv7/dw <- conv6
I0123 11:51:52.872328 30204 net.cpp:382] conv7/dw -> conv7/dw
I0123 11:51:52.872543 30204 net.cpp:124] Setting up conv7/dw
I0123 11:51:52.872550 30204 net.cpp:131] Top shape: 1 512 20 20 (204800)
I0123 11:51:52.872551 30204 net.cpp:139] Memory required for data: 65126400
I0123 11:51:52.872555 30204 layer_factory.hpp:77] Creating layer conv7/dw/relu
I0123 11:51:52.872572 30204 net.cpp:86] Creating Layer conv7/dw/relu
I0123 11:51:52.872575 30204 net.cpp:408] conv7/dw/relu <- conv7/dw
I0123 11:51:52.872578 30204 net.cpp:369] conv7/dw/relu -> conv7/dw (in-place)
I0123 11:51:52.872581 30204 net.cpp:124] Setting up conv7/dw/relu
I0123 11:51:52.872584 30204 net.cpp:131] Top shape: 1 512 20 20 (204800)
I0123 11:51:52.872586 30204 net.cpp:139] Memory required for data: 65945600
I0123 11:51:52.872588 30204 layer_factory.hpp:77] Creating layer conv7
I0123 11:51:52.872593 30204 net.cpp:86] Creating Layer conv7
I0123 11:51:52.872596 30204 net.cpp:408] conv7 <- conv7/dw
I0123 11:51:52.872601 30204 net.cpp:382] conv7 -> conv7
I0123 11:51:52.874382 30204 net.cpp:124] Setting up conv7
I0123 11:51:52.874388 30204 net.cpp:131] Top shape: 1 512 20 20 (204800)
I0123 11:51:52.874390 30204 net.cpp:139] Memory required for data: 66764800
I0123 11:51:52.874394 30204 layer_factory.hpp:77] Creating layer conv7/relu
I0123 11:51:52.874413 30204 net.cpp:86] Creating Layer conv7/relu
I0123 11:51:52.874414 30204 net.cpp:408] conv7/relu <- conv7
I0123 11:51:52.874418 30204 net.cpp:369] conv7/relu -> conv7 (in-place)
I0123 11:51:52.874421 30204 net.cpp:124] Setting up conv7/relu
I0123 11:51:52.874423 30204 net.cpp:131] Top shape: 1 512 20 20 (204800)
I0123 11:51:52.874425 30204 net.cpp:139] Memory required for data: 67584000
I0123 11:51:52.874428 30204 layer_factory.hpp:77] Creating layer conv8/dw
I0123 11:51:52.874433 30204 net.cpp:86] Creating Layer conv8/dw
I0123 11:51:52.874436 30204 net.cpp:408] conv8/dw <- conv7
I0123 11:51:52.874439 30204 net.cpp:382] conv8/dw -> conv8/dw
I0123 11:51:52.874670 30204 net.cpp:124] Setting up conv8/dw
I0123 11:51:52.874676 30204 net.cpp:131] Top shape: 1 512 20 20 (204800)
I0123 11:51:52.874678 30204 net.cpp:139] Memory required for data: 68403200
I0123 11:51:52.874681 30204 layer_factory.hpp:77] Creating layer conv8/dw/relu
I0123 11:51:52.874688 30204 net.cpp:86] Creating Layer conv8/dw/relu
I0123 11:51:52.874691 30204 net.cpp:408] conv8/dw/relu <- conv8/dw
I0123 11:51:52.874693 30204 net.cpp:369] conv8/dw/relu -> conv8/dw (in-place)
I0123 11:51:52.874696 30204 net.cpp:124] Setting up conv8/dw/relu
I0123 11:51:52.874699 30204 net.cpp:131] Top shape: 1 512 20 20 (204800)
I0123 11:51:52.874701 30204 net.cpp:139] Memory required for data: 69222400
I0123 11:51:52.874703 30204 layer_factory.hpp:77] Creating layer conv8
I0123 11:51:52.874708 30204 net.cpp:86] Creating Layer conv8
I0123 11:51:52.874711 30204 net.cpp:408] conv8 <- conv8/dw
I0123 11:51:52.874713 30204 net.cpp:382] conv8 -> conv8
I0123 11:51:52.877018 30204 net.cpp:124] Setting up conv8
I0123 11:51:52.877028 30204 net.cpp:131] Top shape: 1 512 20 20 (204800)
I0123 11:51:52.877032 30204 net.cpp:139] Memory required for data: 70041600
I0123 11:51:52.877053 30204 layer_factory.hpp:77] Creating layer conv8/relu
I0123 11:51:52.877059 30204 net.cpp:86] Creating Layer conv8/relu
I0123 11:51:52.877061 30204 net.cpp:408] conv8/relu <- conv8
I0123 11:51:52.877065 30204 net.cpp:369] conv8/relu -> conv8 (in-place)
I0123 11:51:52.877069 30204 net.cpp:124] Setting up conv8/relu
I0123 11:51:52.877072 30204 net.cpp:131] Top shape: 1 512 20 20 (204800)
I0123 11:51:52.877076 30204 net.cpp:139] Memory required for data: 70860800
I0123 11:51:52.877079 30204 layer_factory.hpp:77] Creating layer conv9/dw
I0123 11:51:52.877084 30204 net.cpp:86] Creating Layer conv9/dw
I0123 11:51:52.877087 30204 net.cpp:408] conv9/dw <- conv8
I0123 11:51:52.877090 30204 net.cpp:382] conv9/dw -> conv9/dw
I0123 11:51:52.877337 30204 net.cpp:124] Setting up conv9/dw
I0123 11:51:52.877342 30204 net.cpp:131] Top shape: 1 512 20 20 (204800)
I0123 11:51:52.877344 30204 net.cpp:139] Memory required for data: 71680000
I0123 11:51:52.877348 30204 layer_factory.hpp:77] Creating layer conv9/dw/relu
I0123 11:51:52.877351 30204 net.cpp:86] Creating Layer conv9/dw/relu
I0123 11:51:52.877368 30204 net.cpp:408] conv9/dw/relu <- conv9/dw
I0123 11:51:52.877370 30204 net.cpp:369] conv9/dw/relu -> conv9/dw (in-place)
I0123 11:51:52.877374 30204 net.cpp:124] Setting up conv9/dw/relu
I0123 11:51:52.877377 30204 net.cpp:131] Top shape: 1 512 20 20 (204800)
I0123 11:51:52.877379 30204 net.cpp:139] Memory required for data: 72499200
I0123 11:51:52.877382 30204 layer_factory.hpp:77] Creating layer conv9
I0123 11:51:52.877385 30204 net.cpp:86] Creating Layer conv9
I0123 11:51:52.877413 30204 net.cpp:408] conv9 <- conv9/dw
I0123 11:51:52.877416 30204 net.cpp:382] conv9 -> conv9
I0123 11:51:52.879233 30204 net.cpp:124] Setting up conv9
I0123 11:51:52.879240 30204 net.cpp:131] Top shape: 1 512 20 20 (204800)
I0123 11:51:52.879241 30204 net.cpp:139] Memory required for data: 73318400
I0123 11:51:52.879245 30204 layer_factory.hpp:77] Creating layer conv9/relu
I0123 11:51:52.879272 30204 net.cpp:86] Creating Layer conv9/relu
I0123 11:51:52.879276 30204 net.cpp:408] conv9/relu <- conv9
I0123 11:51:52.879278 30204 net.cpp:369] conv9/relu -> conv9 (in-place)
I0123 11:51:52.879282 30204 net.cpp:124] Setting up conv9/relu
I0123 11:51:52.879285 30204 net.cpp:131] Top shape: 1 512 20 20 (204800)
I0123 11:51:52.879287 30204 net.cpp:139] Memory required for data: 74137600
I0123 11:51:52.879289 30204 layer_factory.hpp:77] Creating layer conv10/dw
I0123 11:51:52.879295 30204 net.cpp:86] Creating Layer conv10/dw
I0123 11:51:52.879298 30204 net.cpp:408] conv10/dw <- conv9
I0123 11:51:52.879318 30204 net.cpp:382] conv10/dw -> conv10/dw
I0123 11:51:52.879568 30204 net.cpp:124] Setting up conv10/dw
I0123 11:51:52.879575 30204 net.cpp:131] Top shape: 1 512 20 20 (204800)
I0123 11:51:52.879576 30204 net.cpp:139] Memory required for data: 74956800
I0123 11:51:52.879580 30204 layer_factory.hpp:77] Creating layer conv10/dw/relu
I0123 11:51:52.879585 30204 net.cpp:86] Creating Layer conv10/dw/relu
I0123 11:51:52.879586 30204 net.cpp:408] conv10/dw/relu <- conv10/dw
I0123 11:51:52.879590 30204 net.cpp:369] conv10/dw/relu -> conv10/dw (in-place)
I0123 11:51:52.879592 30204 net.cpp:124] Setting up conv10/dw/relu
I0123 11:51:52.879595 30204 net.cpp:131] Top shape: 1 512 20 20 (204800)
I0123 11:51:52.879597 30204 net.cpp:139] Memory required for data: 75776000
I0123 11:51:52.879600 30204 layer_factory.hpp:77] Creating layer conv10
I0123 11:51:52.879604 30204 net.cpp:86] Creating Layer conv10
I0123 11:51:52.879606 30204 net.cpp:408] conv10 <- conv10/dw
I0123 11:51:52.879609 30204 net.cpp:382] conv10 -> conv10
I0123 11:51:52.881959 30204 net.cpp:124] Setting up conv10
I0123 11:51:52.881969 30204 net.cpp:131] Top shape: 1 512 20 20 (204800)
I0123 11:51:52.881973 30204 net.cpp:139] Memory required for data: 76595200
I0123 11:51:52.881990 30204 layer_factory.hpp:77] Creating layer conv10/relu
I0123 11:51:52.881995 30204 net.cpp:86] Creating Layer conv10/relu
I0123 11:51:52.881999 30204 net.cpp:408] conv10/relu <- conv10
I0123 11:51:52.882002 30204 net.cpp:369] conv10/relu -> conv10 (in-place)
I0123 11:51:52.882006 30204 net.cpp:124] Setting up conv10/relu
I0123 11:51:52.882009 30204 net.cpp:131] Top shape: 1 512 20 20 (204800)
I0123 11:51:52.882011 30204 net.cpp:139] Memory required for data: 77414400
I0123 11:51:52.882014 30204 layer_factory.hpp:77] Creating layer conv11/dw
I0123 11:51:52.882019 30204 net.cpp:86] Creating Layer conv11/dw
I0123 11:51:52.882023 30204 net.cpp:408] conv11/dw <- conv10
I0123 11:51:52.882026 30204 net.cpp:382] conv11/dw -> conv11/dw
I0123 11:51:52.882239 30204 net.cpp:124] Setting up conv11/dw
I0123 11:51:52.882244 30204 net.cpp:131] Top shape: 1 512 20 20 (204800)
I0123 11:51:52.882246 30204 net.cpp:139] Memory required for data: 78233600
I0123 11:51:52.882251 30204 layer_factory.hpp:77] Creating layer conv11/dw/relu
I0123 11:51:52.882254 30204 net.cpp:86] Creating Layer conv11/dw/relu
I0123 11:51:52.882256 30204 net.cpp:408] conv11/dw/relu <- conv11/dw
I0123 11:51:52.882259 30204 net.cpp:369] conv11/dw/relu -> conv11/dw (in-place)
I0123 11:51:52.882263 30204 net.cpp:124] Setting up conv11/dw/relu
I0123 11:51:52.882266 30204 net.cpp:131] Top shape: 1 512 20 20 (204800)
I0123 11:51:52.882267 30204 net.cpp:139] Memory required for data: 79052800
I0123 11:51:52.882269 30204 layer_factory.hpp:77] Creating layer conv11
I0123 11:51:52.882274 30204 net.cpp:86] Creating Layer conv11
I0123 11:51:52.882277 30204 net.cpp:408] conv11 <- conv11/dw
I0123 11:51:52.882280 30204 net.cpp:382] conv11 -> conv11
I0123 11:51:52.884040 30204 net.cpp:124] Setting up conv11
I0123 11:51:52.884047 30204 net.cpp:131] Top shape: 1 512 20 20 (204800)
I0123 11:51:52.884048 30204 net.cpp:139] Memory required for data: 79872000
I0123 11:51:52.884052 30204 layer_factory.hpp:77] Creating layer conv11/relu
I0123 11:51:52.884055 30204 net.cpp:86] Creating Layer conv11/relu
I0123 11:51:52.884058 30204 net.cpp:408] conv11/relu <- conv11
I0123 11:51:52.884061 30204 net.cpp:369] conv11/relu -> conv11 (in-place)
I0123 11:51:52.884073 30204 net.cpp:124] Setting up conv11/relu
I0123 11:51:52.884078 30204 net.cpp:131] Top shape: 1 512 20 20 (204800)
I0123 11:51:52.884079 30204 net.cpp:139] Memory required for data: 80691200
I0123 11:51:52.884081 30204 layer_factory.hpp:77] Creating layer conv11_conv11/relu_0_split
I0123 11:51:52.884084 30204 net.cpp:86] Creating Layer conv11_conv11/relu_0_split
I0123 11:51:52.884088 30204 net.cpp:408] conv11_conv11/relu_0_split <- conv11
I0123 11:51:52.884090 30204 net.cpp:382] conv11_conv11/relu_0_split -> conv11_conv11/relu_0_split_0
I0123 11:51:52.884095 30204 net.cpp:382] conv11_conv11/relu_0_split -> conv11_conv11/relu_0_split_1
I0123 11:51:52.884124 30204 net.cpp:124] Setting up conv11_conv11/relu_0_split
I0123 11:51:52.884127 30204 net.cpp:131] Top shape: 1 512 20 20 (204800)
I0123 11:51:52.884130 30204 net.cpp:131] Top shape: 1 512 20 20 (204800)
I0123 11:51:52.884132 30204 net.cpp:139] Memory required for data: 82329600
I0123 11:51:52.884135 30204 layer_factory.hpp:77] Creating layer conv12/dw
I0123 11:51:52.884140 30204 net.cpp:86] Creating Layer conv12/dw
I0123 11:51:52.884142 30204 net.cpp:408] conv12/dw <- conv11_conv11/relu_0_split_0
I0123 11:51:52.884151 30204 net.cpp:382] conv12/dw -> conv12/dw
I0123 11:51:52.884366 30204 net.cpp:124] Setting up conv12/dw
I0123 11:51:52.884371 30204 net.cpp:131] Top shape: 1 512 10 10 (51200)
I0123 11:51:52.884373 30204 net.cpp:139] Memory required for data: 82534400
I0123 11:51:52.884377 30204 layer_factory.hpp:77] Creating layer conv12/dw/relu
I0123 11:51:52.884380 30204 net.cpp:86] Creating Layer conv12/dw/relu
I0123 11:51:52.884383 30204 net.cpp:408] conv12/dw/relu <- conv12/dw
I0123 11:51:52.884387 30204 net.cpp:369] conv12/dw/relu -> conv12/dw (in-place)
I0123 11:51:52.884389 30204 net.cpp:124] Setting up conv12/dw/relu
I0123 11:51:52.884392 30204 net.cpp:131] Top shape: 1 512 10 10 (51200)
I0123 11:51:52.884394 30204 net.cpp:139] Memory required for data: 82739200
I0123 11:51:52.884397 30204 layer_factory.hpp:77] Creating layer conv12
I0123 11:51:52.884402 30204 net.cpp:86] Creating Layer conv12
I0123 11:51:52.884404 30204 net.cpp:408] conv12 <- conv12/dw
I0123 11:51:52.884407 30204 net.cpp:382] conv12 -> conv12
I0123 11:51:52.888334 30204 net.cpp:124] Setting up conv12
I0123 11:51:52.888347 30204 net.cpp:131] Top shape: 1 1024 10 10 (102400)
I0123 11:51:52.888350 30204 net.cpp:139] Memory required for data: 83148800
I0123 11:51:52.888355 30204 layer_factory.hpp:77] Creating layer conv12/relu
I0123 11:51:52.888360 30204 net.cpp:86] Creating Layer conv12/relu
I0123 11:51:52.888362 30204 net.cpp:408] conv12/relu <- conv12
I0123 11:51:52.888366 30204 net.cpp:369] conv12/relu -> conv12 (in-place)
I0123 11:51:52.888371 30204 net.cpp:124] Setting up conv12/relu
I0123 11:51:52.888375 30204 net.cpp:131] Top shape: 1 1024 10 10 (102400)
I0123 11:51:52.888376 30204 net.cpp:139] Memory required for data: 83558400
I0123 11:51:52.888378 30204 layer_factory.hpp:77] Creating layer conv13/dw
I0123 11:51:52.888384 30204 net.cpp:86] Creating Layer conv13/dw
I0123 11:51:52.888386 30204 net.cpp:408] conv13/dw <- conv12
I0123 11:51:52.888391 30204 net.cpp:382] conv13/dw -> conv13/dw
I0123 11:51:52.888609 30204 net.cpp:124] Setting up conv13/dw
I0123 11:51:52.888615 30204 net.cpp:131] Top shape: 1 1024 10 10 (102400)
I0123 11:51:52.888617 30204 net.cpp:139] Memory required for data: 83968000
I0123 11:51:52.888622 30204 layer_factory.hpp:77] Creating layer conv13/dw/relu
I0123 11:51:52.888624 30204 net.cpp:86] Creating Layer conv13/dw/relu
I0123 11:51:52.888628 30204 net.cpp:408] conv13/dw/relu <- conv13/dw
I0123 11:51:52.888631 30204 net.cpp:369] conv13/dw/relu -> conv13/dw (in-place)
I0123 11:51:52.888634 30204 net.cpp:124] Setting up conv13/dw/relu
I0123 11:51:52.888638 30204 net.cpp:131] Top shape: 1 1024 10 10 (102400)
I0123 11:51:52.888639 30204 net.cpp:139] Memory required for data: 84377600
I0123 11:51:52.888641 30204 layer_factory.hpp:77] Creating layer conv13
I0123 11:51:52.888648 30204 net.cpp:86] Creating Layer conv13
I0123 11:51:52.888659 30204 net.cpp:408] conv13 <- conv13/dw
I0123 11:51:52.888662 30204 net.cpp:382] conv13 -> conv13
I0123 11:51:52.896193 30204 net.cpp:124] Setting up conv13
I0123 11:51:52.896210 30204 net.cpp:131] Top shape: 1 1024 10 10 (102400)
I0123 11:51:52.896214 30204 net.cpp:139] Memory required for data: 84787200
I0123 11:51:52.896219 30204 layer_factory.hpp:77] Creating layer conv13/relu
I0123 11:51:52.896224 30204 net.cpp:86] Creating Layer conv13/relu
I0123 11:51:52.896227 30204 net.cpp:408] conv13/relu <- conv13
I0123 11:51:52.896231 30204 net.cpp:369] conv13/relu -> conv13 (in-place)
I0123 11:51:52.896239 30204 net.cpp:124] Setting up conv13/relu
I0123 11:51:52.896241 30204 net.cpp:131] Top shape: 1 1024 10 10 (102400)
I0123 11:51:52.896244 30204 net.cpp:139] Memory required for data: 85196800
I0123 11:51:52.896245 30204 layer_factory.hpp:77] Creating layer conv15/dw
I0123 11:51:52.896252 30204 net.cpp:86] Creating Layer conv15/dw
I0123 11:51:52.896255 30204 net.cpp:408] conv15/dw <- conv13
I0123 11:51:52.896260 30204 net.cpp:382] conv15/dw -> conv15/dw
I0123 11:51:52.896492 30204 net.cpp:124] Setting up conv15/dw
I0123 11:51:52.896497 30204 net.cpp:131] Top shape: 1 1024 10 10 (102400)
I0123 11:51:52.896499 30204 net.cpp:139] Memory required for data: 85606400
I0123 11:51:52.896503 30204 layer_factory.hpp:77] Creating layer conv15/dw/relu
I0123 11:51:52.896507 30204 net.cpp:86] Creating Layer conv15/dw/relu
I0123 11:51:52.896509 30204 net.cpp:408] conv15/dw/relu <- conv15/dw
I0123 11:51:52.896514 30204 net.cpp:369] conv15/dw/relu -> conv15/dw (in-place)
I0123 11:51:52.896518 30204 net.cpp:124] Setting up conv15/dw/relu
I0123 11:51:52.896520 30204 net.cpp:131] Top shape: 1 1024 10 10 (102400)
I0123 11:51:52.896523 30204 net.cpp:139] Memory required for data: 86016000
I0123 11:51:52.896525 30204 layer_factory.hpp:77] Creating layer conv15
I0123 11:51:52.896529 30204 net.cpp:86] Creating Layer conv15
I0123 11:51:52.896531 30204 net.cpp:408] conv15 <- conv15/dw
I0123 11:51:52.896535 30204 net.cpp:382] conv15 -> conv15
I0123 11:51:52.904047 30204 net.cpp:124] Setting up conv15
I0123 11:51:52.904063 30204 net.cpp:131] Top shape: 1 1024 10 10 (102400)
I0123 11:51:52.904065 30204 net.cpp:139] Memory required for data: 86425600
I0123 11:51:52.904084 30204 layer_factory.hpp:77] Creating layer conv15/relu
I0123 11:51:52.904090 30204 net.cpp:86] Creating Layer conv15/relu
I0123 11:51:52.904093 30204 net.cpp:408] conv15/relu <- conv15
I0123 11:51:52.904098 30204 net.cpp:369] conv15/relu -> conv15 (in-place)
I0123 11:51:52.904103 30204 net.cpp:124] Setting up conv15/relu
I0123 11:51:52.904109 30204 net.cpp:131] Top shape: 1 1024 10 10 (102400)
I0123 11:51:52.904111 30204 net.cpp:139] Memory required for data: 86835200
I0123 11:51:52.904114 30204 layer_factory.hpp:77] Creating layer conv15_conv15/relu_0_split
I0123 11:51:52.904117 30204 net.cpp:86] Creating Layer conv15_conv15/relu_0_split
I0123 11:51:52.904119 30204 net.cpp:408] conv15_conv15/relu_0_split <- conv15
I0123 11:51:52.904122 30204 net.cpp:382] conv15_conv15/relu_0_split -> conv15_conv15/relu_0_split_0
I0123 11:51:52.904134 30204 net.cpp:382] conv15_conv15/relu_0_split -> conv15_conv15/relu_0_split_1
I0123 11:51:52.904191 30204 net.cpp:124] Setting up conv15_conv15/relu_0_split
I0123 11:51:52.904233 30204 net.cpp:131] Top shape: 1 1024 10 10 (102400)
I0123 11:51:52.904243 30204 net.cpp:131] Top shape: 1 1024 10 10 (102400)
I0123 11:51:52.904251 30204 net.cpp:139] Memory required for data: 87654400
I0123 11:51:52.904260 30204 layer_factory.hpp:77] Creating layer upsample
I0123 11:51:52.904274 30204 net.cpp:86] Creating Layer upsample
I0123 11:51:52.904279 30204 net.cpp:408] upsample <- conv15_conv15/relu_0_split_0
I0123 11:51:52.904284 30204 net.cpp:382] upsample -> upsample
I0123 11:51:52.904454 30204 net.cpp:124] Setting up upsample
I0123 11:51:52.904460 30204 net.cpp:131] Top shape: 1 512 19 19 (184832)
I0123 11:51:52.904462 30204 net.cpp:139] Memory required for data: 88393728
I0123 11:51:52.904466 30204 layer_factory.hpp:77] Creating layer maxpool
I0123 11:51:52.904482 30204 net.cpp:86] Creating Layer maxpool
I0123 11:51:52.904484 30204 net.cpp:408] maxpool <- upsample
I0123 11:51:52.904489 30204 net.cpp:382] maxpool -> maxpool
I0123 11:51:52.904541 30204 net.cpp:124] Setting up maxpool
I0123 11:51:52.904546 30204 net.cpp:131] Top shape: 1 512 20 20 (204800)
I0123 11:51:52.904547 30204 net.cpp:139] Memory required for data: 89212928
I0123 11:51:52.904562 30204 layer_factory.hpp:77] Creating layer conv17/dw
I0123 11:51:52.904567 30204 net.cpp:86] Creating Layer conv17/dw
I0123 11:51:52.904584 30204 net.cpp:408] conv17/dw <- conv11_conv11/relu_0_split_1
I0123 11:51:52.904588 30204 net.cpp:382] conv17/dw -> conv17/dw
I0123 11:51:52.904785 30204 net.cpp:124] Setting up conv17/dw
I0123 11:51:52.904790 30204 net.cpp:131] Top shape: 1 512 20 20 (204800)
I0123 11:51:52.904793 30204 net.cpp:139] Memory required for data: 90032128
I0123 11:51:52.904796 30204 layer_factory.hpp:77] Creating layer conv17/dw/relu
I0123 11:51:52.904805 30204 net.cpp:86] Creating Layer conv17/dw/relu
I0123 11:51:52.904808 30204 net.cpp:408] conv17/dw/relu <- conv17/dw
I0123 11:51:52.904811 30204 net.cpp:369] conv17/dw/relu -> conv17/dw (in-place)
I0123 11:51:52.904815 30204 net.cpp:124] Setting up conv17/dw/relu
I0123 11:51:52.904819 30204 net.cpp:131] Top shape: 1 512 20 20 (204800)
I0123 11:51:52.904821 30204 net.cpp:139] Memory required for data: 90851328
I0123 11:51:52.904824 30204 layer_factory.hpp:77] Creating layer conv17
I0123 11:51:52.904827 30204 net.cpp:86] Creating Layer conv17
I0123 11:51:52.904844 30204 net.cpp:408] conv17 <- conv17/dw
I0123 11:51:52.904847 30204 net.cpp:382] conv17 -> conv17
I0123 11:51:52.907212 30204 net.cpp:124] Setting up conv17
I0123 11:51:52.907222 30204 net.cpp:131] Top shape: 1 512 20 20 (204800)
I0123 11:51:52.907225 30204 net.cpp:139] Memory required for data: 91670528
I0123 11:51:52.907243 30204 layer_factory.hpp:77] Creating layer conv17/relu
I0123 11:51:52.907248 30204 net.cpp:86] Creating Layer conv17/relu
I0123 11:51:52.907250 30204 net.cpp:408] conv17/relu <- conv17
I0123 11:51:52.907254 30204 net.cpp:369] conv17/relu -> conv17 (in-place)
I0123 11:51:52.907258 30204 net.cpp:124] Setting up conv17/relu
I0123 11:51:52.907261 30204 net.cpp:131] Top shape: 1 512 20 20 (204800)
I0123 11:51:52.907264 30204 net.cpp:139] Memory required for data: 92489728
I0123 11:51:52.907266 30204 layer_factory.hpp:77] Creating layer conv17/sum
I0123 11:51:52.907269 30204 net.cpp:86] Creating Layer conv17/sum
I0123 11:51:52.907272 30204 net.cpp:408] conv17/sum <- maxpool
I0123 11:51:52.907274 30204 net.cpp:408] conv17/sum <- conv17
I0123 11:51:52.907279 30204 net.cpp:382] conv17/sum -> conv17/sum
I0123 11:51:52.907315 30204 net.cpp:124] Setting up conv17/sum
I0123 11:51:52.907320 30204 net.cpp:131] Top shape: 1 512 20 20 (204800)
I0123 11:51:52.907335 30204 net.cpp:139] Memory required for data: 93308928
I0123 11:51:52.907337 30204 layer_factory.hpp:77] Creating layer conv18/dw
I0123 11:51:52.907341 30204 net.cpp:86] Creating Layer conv18/dw
I0123 11:51:52.907344 30204 net.cpp:408] conv18/dw <- conv17/sum
I0123 11:51:52.907349 30204 net.cpp:382] conv18/dw -> conv18/dw
I0123 11:51:52.907591 30204 net.cpp:124] Setting up conv18/dw
I0123 11:51:52.907598 30204 net.cpp:131] Top shape: 1 512 20 20 (204800)
I0123 11:51:52.907599 30204 net.cpp:139] Memory required for data: 94128128
I0123 11:51:52.907609 30204 layer_factory.hpp:77] Creating layer conv18/dw/relu
I0123 11:51:52.907613 30204 net.cpp:86] Creating Layer conv18/dw/relu
I0123 11:51:52.907615 30204 net.cpp:408] conv18/dw/relu <- conv18/dw
I0123 11:51:52.907618 30204 net.cpp:369] conv18/dw/relu -> conv18/dw (in-place)
I0123 11:51:52.907622 30204 net.cpp:124] Setting up conv18/dw/relu
I0123 11:51:52.907625 30204 net.cpp:131] Top shape: 1 512 20 20 (204800)
I0123 11:51:52.907629 30204 net.cpp:139] Memory required for data: 94947328
I0123 11:51:52.907630 30204 layer_factory.hpp:77] Creating layer conv18_new
I0123 11:51:52.907634 30204 net.cpp:86] Creating Layer conv18_new
I0123 11:51:52.907637 30204 net.cpp:408] conv18_new <- conv18/dw
I0123 11:51:52.907665 30204 net.cpp:382] conv18_new -> conv18_new
I0123 11:51:52.911518 30204 net.cpp:124] Setting up conv18_new
I0123 11:51:52.911530 30204 net.cpp:131] Top shape: 1 1024 20 20 (409600)
I0123 11:51:52.911531 30204 net.cpp:139] Memory required for data: 96585728
I0123 11:51:52.911550 30204 layer_factory.hpp:77] Creating layer conv18_new/relu
I0123 11:51:52.911556 30204 net.cpp:86] Creating Layer conv18_new/relu
I0123 11:51:52.911558 30204 net.cpp:408] conv18_new/relu <- conv18_new
I0123 11:51:52.911562 30204 net.cpp:369] conv18_new/relu -> conv18_new (in-place)
I0123 11:51:52.911566 30204 net.cpp:124] Setting up conv18_new/relu
I0123 11:51:52.911569 30204 net.cpp:131] Top shape: 1 1024 20 20 (409600)
I0123 11:51:52.911572 30204 net.cpp:139] Memory required for data: 98224128
I0123 11:51:52.911574 30204 layer_factory.hpp:77] Creating layer conv19
I0123 11:51:52.911581 30204 net.cpp:86] Creating Layer conv19
I0123 11:51:52.911583 30204 net.cpp:408] conv19 <- conv15_conv15/relu_0_split_1
I0123 11:51:52.911588 30204 net.cpp:382] conv19 -> conv19
I0123 11:51:52.912122 30204 net.cpp:124] Setting up conv19
I0123 11:51:52.912129 30204 net.cpp:131] Top shape: 1 75 10 10 (7500)
I0123 11:51:52.912132 30204 net.cpp:139] Memory required for data: 98254128
I0123 11:51:52.912135 30204 layer_factory.hpp:77] Creating layer conv20
I0123 11:51:52.912155 30204 net.cpp:86] Creating Layer conv20
I0123 11:51:52.912158 30204 net.cpp:408] conv20 <- conv18_new
I0123 11:51:52.912163 30204 net.cpp:382] conv20 -> conv20
I0123 11:51:52.912653 30204 net.cpp:124] Setting up conv20
I0123 11:51:52.912659 30204 net.cpp:131] Top shape: 1 75 20 20 (30000)
I0123 11:51:52.912662 30204 net.cpp:139] Memory required for data: 98374128
I0123 11:51:52.912665 30204 layer_factory.hpp:77] Creating layer detection_out
I0123 11:51:52.912684 30204 net.cpp:86] Creating Layer detection_out
I0123 11:51:52.912686 30204 net.cpp:408] detection_out <- conv19
I0123 11:51:52.912689 30204 net.cpp:408] detection_out <- conv20
I0123 11:51:52.912693 30204 net.cpp:382] detection_out -> detection_out
I0123 11:51:52.912714 30204 net.cpp:124] Setting up detection_out
I0123 11:51:52.912719 30204 net.cpp:131] Top shape: 1 1 1 7 (7)
I0123 11:51:52.912720 30204 net.cpp:139] Memory required for data: 98374156
I0123 11:51:52.912722 30204 net.cpp:202] detection_out does not need backward computation.
I0123 11:51:52.912729 30204 net.cpp:202] conv20 does not need backward computation.
I0123 11:51:52.912730 30204 net.cpp:202] conv19 does not need backward computation.
I0123 11:51:52.912734 30204 net.cpp:202] conv18_new/relu does not need backward computation.
…
