I0123 10:27:28.372609 27660 caffe.cpp:355] Use GPU with device ID 0
I0123 10:27:28.565528 27660 net.cpp:296] The NetState phase (0) differed from the phase (1) specified by a rule in layer detection_out
I0123 10:27:28.565747 27660 net.cpp:53] Initializing net from parameters: 
name: "remove_bn"
state {
  phase: TRAIN
  level: 0
  stage: ""
}
layer {
  name: "data"
  type: "Input"
  top: "data"
  input_param {
    shape {
      dim: 1
      dim: 3
      dim: 416
      dim: 416
    }
  }
}
layer {
  name: "conv0"
  type: "Convolution"
  bottom: "data"
  top: "conv0"
  param {
    lr_mult: 1
    decay_mult: 1
  }
  convolution_param {
    num_output: 32
    bias_term: true
    pad: 1
    kernel_size: 3
    stride: 2
    weight_filler {
      type: "msra"
    }
  }
}
layer {
  name: "conv0/relu"
  type: "ReLU"
  bottom: "conv0"
  top: "conv0"
}
layer {
  name: "conv1/dw"
  type: "DepthwiseConvolution"
  bottom: "conv0"
  top: "conv1/dw"
  param {
    lr_mult: 1
    decay_mult: 1
  }
  convolution_param {
    num_output: 32
    bias_term: true
    pad: 1
    kernel_size: 3
    group: 32
    weight_filler {
      type: "msra"
    }
    engine: CAFFE
  }
}
layer {
  name: "conv1/dw/relu"
  type: "ReLU"
  bottom: "conv1/dw"
  top: "conv1/dw"
}
layer {
  name: "conv1"
  type: "Convolution"
  bottom: "conv1/dw"
  top: "conv1"
  param {
    lr_mult: 1
    decay_mult: 1
  }
  convolution_param {
    num_output: 64
    bias_term: true
    kernel_size: 1
    weight_filler {
      type: "msra"
    }
  }
}
layer {
  name: "conv1/relu"
  type: "ReLU"
  bottom: "conv1"
  top: "conv1"
}
layer {
  name: "conv2/dw"
  type: "DepthwiseConvolution"
  bottom: "conv1"
  top: "conv2/dw"
  param {
    lr_mult: 1
    decay_mult: 1
  }
  convolution_param {
    num_output: 64
    bias_term: true
    pad: 1
    kernel_size: 3
    group: 64
    stride: 2
    weight_filler {
      type: "msra"
    }
    engine: CAFFE
  }
}
layer {
  name: "conv2/dw/relu"
  type: "ReLU"
  bottom: "conv2/dw"
  top: "conv2/dw"
}
layer {
  name: "conv2"
  type: "Convolution"
  bottom: "conv2/dw"
  top: "conv2"
  param {
    lr_mult: 1
    decay_mult: 1
  }
  convolution_param {
    num_output: 128
    bias_term: true
    kernel_size: 1
    weight_filler {
      type: "msra"
    }
  }
}
layer {
  name: "conv2/relu"
  type: "ReLU"
  bottom: "conv2"
  top: "conv2"
}
layer {
  name: "conv3/dw"
  type: "DepthwiseConvolution"
  bottom: "conv2"
  top: "conv3/dw"
  param {
    lr_mult: 1
    decay_mult: 1
  }
  convolution_param {
    num_output: 128
    bias_term: true
    pad: 1
    kernel_size: 3
    group: 128
    weight_filler {
      type: "msra"
    }
    engine: CAFFE
  }
}
layer {
  name: "conv3/dw/relu"
  type: "ReLU"
  bottom: "conv3/dw"
  top: "conv3/dw"
}
layer {
  name: "conv3"
  type: "Convolution"
  bottom: "conv3/dw"
  top: "conv3"
  param {
    lr_mult: 1
    decay_mult: 1
  }
  convolution_param {
    num_output: 128
    bias_term: true
    kernel_size: 1
    weight_filler {
      type: "msra"
    }
  }
}
layer {
  name: "conv3/relu"
  type: "ReLU"
  bottom: "conv3"
  top: "conv3"
}
layer {
  name: "conv4/dw"
  type: "DepthwiseConvolution"
  bottom: "conv3"
  top: "conv4/dw"
  param {
    lr_mult: 1
    decay_mult: 1
  }
  convolution_param {
    num_output: 128
    bias_term: true
    pad: 1
    kernel_size: 3
    group: 128
    stride: 2
    weight_filler {
      type: "msra"
    }
    engine: CAFFE
  }
}
layer {
  name: "conv4/dw/relu"
  type: "ReLU"
  bottom: "conv4/dw"
  top: "conv4/dw"
}
layer {
  name: "conv4"
  type: "Convolution"
  bottom: "conv4/dw"
  top: "conv4"
  param {
    lr_mult: 1
    decay_mult: 1
  }
  convolution_param {
    num_output: 256
    bias_term: true
    kernel_size: 1
    weight_filler {
      type: "msra"
    }
  }
}
layer {
  name: "conv4/relu"
  type: "ReLU"
  bottom: "conv4"
  top: "conv4"
}
layer {
  name: "conv5/dw"
  type: "DepthwiseConvolution"
  bottom: "conv4"
  top: "conv5/dw"
  param {
    lr_mult: 1
    decay_mult: 1
  }
  convolution_param {
    num_output: 256
    bias_term: true
    pad: 1
    kernel_size: 3
    group: 256
    weight_filler {
      type: "msra"
    }
    engine: CAFFE
  }
}
layer {
  name: "conv5/dw/relu"
  type: "ReLU"
  bottom: "conv5/dw"
  top: "conv5/dw"
}
layer {
  name: "conv5"
  type: "Convolution"
  bottom: "conv5/dw"
  top: "conv5"
  param {
    lr_mult: 1
    decay_mult: 1
  }
  convolution_param {
    num_output: 256
    bias_term: true
    kernel_size: 1
    weight_filler {
      type: "msra"
    }
  }
}
layer {
  name: "conv5/relu"
  type: "ReLU"
  bottom: "conv5"
  top: "conv5"
}
layer {
  name: "conv6/dw"
  type: "DepthwiseConvolution"
  bottom: "conv5"
  top: "conv6/dw"
  param {
    lr_mult: 1
    decay_mult: 1
  }
  convolution_param {
    num_output: 256
    bias_term: true
    pad: 1
    kernel_size: 3
    group: 256
    stride: 2
    weight_filler {
      type: "msra"
    }
    engine: CAFFE
  }
}
layer {
  name: "conv6/dw/relu"
  type: "ReLU"
  bottom: "conv6/dw"
  top: "conv6/dw"
}
layer {
  name: "conv6"
  type: "Convolution"
  bottom: "conv6/dw"
  top: "conv6"
  param {
    lr_mult: 1
    decay_mult: 1
  }
  convolution_param {
    num_output: 512
    bias_term: true
    kernel_size: 1
    weight_filler {
      type: "msra"
    }
  }
}
layer {
  name: "conv6/relu"
  type: "ReLU"
  bottom: "conv6"
  top: "conv6"
}
layer {
  name: "conv7/dw"
  type: "DepthwiseConvolution"
  bottom: "conv6"
  top: "conv7/dw"
  param {
    lr_mult: 1
    decay_mult: 1
  }
  convolution_param {
    num_output: 512
    bias_term: true
    pad: 1
    kernel_size: 3
    group: 512
    weight_filler {
      type: "msra"
    }
    engine: CAFFE
  }
}
layer {
  name: "conv7/dw/relu"
  type: "ReLU"
  bottom: "conv7/dw"
  top: "conv7/dw"
}
layer {
  name: "conv7"
  type: "Convolution"
  bottom: "conv7/dw"
  top: "conv7"
  param {
    lr_mult: 1
    decay_mult: 1
  }
  convolution_param {
    num_output: 512
    bias_term: true
    kernel_size: 1
    weight_filler {
      type: "msra"
    }
  }
}
layer {
  name: "conv7/relu"
  type: "ReLU"
  bottom: "conv7"
  top: "conv7"
}
layer {
  name: "conv8/dw"
  type: "DepthwiseConvolution"
  bottom: "conv7"
  top: "conv8/dw"
  param {
    lr_mult: 1
    decay_mult: 1
  }
  convolution_param {
    num_output: 512
    bias_term: true
    pad: 1
    kernel_size: 3
    group: 512
    weight_filler {
      type: "msra"
    }
    engine: CAFFE
  }
}
layer {
  name: "conv8/dw/relu"
  type: "ReLU"
  bottom: "conv8/dw"
  top: "conv8/dw"
}
layer {
  name: "conv8"
  type: "Convolution"
  bottom: "conv8/dw"
  top: "conv8"
  param {
    lr_mult: 1
    decay_mult: 1
  }
  convolution_param {
    num_output: 512
    bias_term: true
    kernel_size: 1
    weight_filler {
      type: "msra"
    }
  }
}
layer {
  name: "conv8/relu"
  type: "ReLU"
  bottom: "conv8"
  top: "conv8"
}
layer {
  name: "conv9/dw"
  type: "DepthwiseConvolution"
  bottom: "conv8"
  top: "conv9/dw"
  param {
    lr_mult: 1
    decay_mult: 1
  }
  convolution_param {
    num_output: 512
    bias_term: true
    pad: 1
    kernel_size: 3
    group: 512
    weight_filler {
      type: "msra"
    }
    engine: CAFFE
  }
}
layer {
  name: "conv9/dw/relu"
  type: "ReLU"
  bottom: "conv9/dw"
  top: "conv9/dw"
}
layer {
  name: "conv9"
  type: "Convolution"
  bottom: "conv9/dw"
  top: "conv9"
  param {
    lr_mult: 1
    decay_mult: 1
  }
  convolution_param {
    num_output: 512
    bias_term: true
    kernel_size: 1
    weight_filler {
      type: "msra"
    }
  }
}
layer {
  name: "conv9/relu"
  type: "ReLU"
  bottom: "conv9"
  top: "conv9"
}
layer {
  name: "conv10/dw"
  type: "DepthwiseConvolution"
  bottom: "conv9"
  top: "conv10/dw"
  param {
    lr_mult: 1
    decay_mult: 1
  }
  convolution_param {
    num_output: 512
    bias_term: true
    pad: 1
    kernel_size: 3
    group: 512
    weight_filler {
      type: "msra"
    }
    engine: CAFFE
  }
}
layer {
  name: "conv10/dw/relu"
  type: "ReLU"
  bottom: "conv10/dw"
  top: "conv10/dw"
}
layer {
  name: "conv10"
  type: "Convolution"
  bottom: "conv10/dw"
  top: "conv10"
  param {
    lr_mult: 1
    decay_mult: 1
  }
  convolution_param {
    num_output: 512
    bias_term: true
    kernel_size: 1
    weight_filler {
      type: "msra"
    }
  }
}
layer {
  name: "conv10/relu"
  type: "ReLU"
  bottom: "conv10"
  top: "conv10"
}
layer {
  name: "conv11/dw"
  type: "DepthwiseConvolution"
  bottom: "conv10"
  top: "conv11/dw"
  param {
    lr_mult: 1
    decay_mult: 1
  }
  convolution_param {
    num_output: 512
    bias_term: true
    pad: 1
    kernel_size: 3
    group: 512
    weight_filler {
      type: "msra"
    }
    engine: CAFFE
  }
}
layer {
  name: "conv11/dw/relu"
  type: "ReLU"
  bottom: "conv11/dw"
  top: "conv11/dw"
}
layer {
  name: "conv11"
  type: "Convolution"
  bottom: "conv11/dw"
  top: "conv11"
  param {
    lr_mult: 1
    decay_mult: 1
  }
  convolution_param {
    num_output: 512
    bias_term: true
    kernel_size: 1
    weight_filler {
      type: "msra"
    }
  }
}
layer {
  name: "conv11/relu"
  type: "ReLU"
  bottom: "conv11"
  top: "conv11"
}
layer {
  name: "conv12/dw"
  type: "DepthwiseConvolution"
  bottom: "conv11"
  top: "conv12/dw"
  param {
    lr_mult: 1
    decay_mult: 1
  }
  convolution_param {
    num_output: 512
    bias_term: true
    pad: 1
    kernel_size: 3
    group: 512
    stride: 2
    weight_filler {
      type: "msra"
    }
    engine: CAFFE
  }
}
layer {
  name: "conv12/dw/relu"
  type: "ReLU"
  bottom: "conv12/dw"
  top: "conv12/dw"
}
layer {
  name: "conv12"
  type: "Convolution"
  bottom: "conv12/dw"
  top: "conv12"
  param {
    lr_mult: 1
    decay_mult: 1
  }
  convolution_param {
    num_output: 1024
    bias_term: true
    kernel_size: 1
    weight_filler {
      type: "msra"
    }
  }
}
layer {
  name: "conv12/relu"
  type: "ReLU"
  bottom: "conv12"
  top: "conv12"
}
layer {
  name: "conv13/dw"
  type: "DepthwiseConvolution"
  bottom: "conv12"
  top: "conv13/dw"
  param {
    lr_mult: 1
    decay_mult: 1
  }
  convolution_param {
    num_output: 1024
    bias_term: true
    pad: 1
    kernel_size: 3
    group: 1024
    weight_filler {
      type: "msra"
    }
    engine: CAFFE
  }
}
layer {
  name: "conv13/dw/relu"
  type: "ReLU"
  bottom: "conv13/dw"
  top: "conv13/dw"
}
layer {
  name: "conv13"
  type: "Convolution"
  bottom: "conv13/dw"
  top: "conv13"
  param {
    lr_mult: 1
    decay_mult: 1
  }
  convolution_param {
    num_output: 1024
    bias_term: true
    kernel_size: 1
    weight_filler {
      type: "msra"
    }
  }
}
layer {
  name: "conv13/relu"
  type: "ReLU"
  bottom: "conv13"
  top: "conv13"
}
layer {
  name: "conv15/dw"
  type: "DepthwiseConvolution"
  bottom: "conv13"
  top: "conv15/dw"
  param {
    lr_mult: 1
    decay_mult: 1
  }
  convolution_param {
    num_output: 1024
    bias_term: true
    pad: 1
    kernel_size: 3
    group: 1024
    weight_filler {
      type: "msra"
    }
    engine: CAFFE
  }
}
layer {
  name: "conv15/dw/relu"
  type: "ReLU"
  bottom: "conv15/dw"
  top: "conv15/dw"
}
layer {
  name: "conv15"
  type: "Convolution"
  bottom: "conv15/dw"
  top: "conv15"
  param {
    lr_mult: 1
    decay_mult: 1
  }
  convolution_param {
    num_output: 1024
    bias_term: true
    kernel_size: 1
    weight_filler {
      type: "msra"
    }
  }
}
layer {
  name: "conv15/relu"
  type: "ReLU"
  bottom: "conv15"
  top: "conv15"
}
layer {
  name: "upsample"
  type: "Deconvolution"
  bottom: "conv15"
  top: "upsample"
  param {
    lr_mult: 0
    decay_mult: 0
  }
  convolution_param {
    num_output: 512
    bias_term: false
    pad: 0
    kernel_size: 1
    group: 512
    stride: 2
    weight_filler {
      type: "constant"
      value: 1
    }
  }
}
layer {
  name: "maxpool"
  type: "Pooling"
  bottom: "upsample"
  top: "maxpool"
  pooling_param {
    pool: MAX
    kernel_size: 2
    stride: 1
    pad: 1
  }
}
layer {
  name: "conv17/dw"
  type: "DepthwiseConvolution"
  bottom: "conv11"
  top: "conv17/dw"
  param {
    lr_mult: 1
    decay_mult: 1
  }
  convolution_param {
    num_output: 512
    bias_term: true
    pad: 1
    kernel_size: 3
    group: 512
    weight_filler {
      type: "msra"
    }
    engine: CAFFE
  }
}
layer {
  name: "conv17/dw/relu"
  type: "ReLU"
  bottom: "conv17/dw"
  top: "conv17/dw"
}
layer {
  name: "conv17"
  type: "Convolution"
  bottom: "conv17/dw"
  top: "conv17"
  param {
    lr_mult: 1
    decay_mult: 1
  }
  convolution_param {
    num_output: 512
    bias_term: true
    kernel_size: 1
    weight_filler {
      type: "msra"
    }
  }
}
layer {
  name: "conv17/relu"
  type: "ReLU"
  bottom: "conv17"
  top: "conv17"
}
layer {
  name: "conv17/sum"
  type: "Eltwise"
  bottom: "maxpool"
  bottom: "conv17"
  top: "conv17/sum"
}
layer {
  name: "conv18/dw"
  type: "DepthwiseConvolution"
  bottom: "conv17/sum"
  top: "conv18/dw"
  param {
    lr_mult: 1
    decay_mult: 1
  }
  convolution_param {
    num_output: 512
    bias_term: true
    pad: 1
    kernel_size: 3
    group: 512
    weight_filler {
      type: "msra"
    }
    engine: CAFFE
  }
}
layer {
  name: "conv18/dw/relu"
  type: "ReLU"
  bottom: "conv18/dw"
  top: "conv18/dw"
}
layer {
  name: "conv18_new"
  type: "Convolution"
  bottom: "conv18/dw"
  top: "conv18_new"
  param {
    lr_mult: 1
    decay_mult: 1
  }
  convolution_param {
    num_output: 1024
    bias_term: true
    kernel_size: 1
    weight_filler {
      type: "msra"
    }
  }
}
layer {
  name: "conv18_new/relu"
  type: "ReLU"
  bottom: "conv18_new"
  top: "conv18_new"
}
layer {
  name: "conv19"
  type: "Convolution"
  bottom: "conv15"
  top: "conv19"
  param {
    lr_mult: 1
    decay_mult: 1
  }
  param {
    lr_mult: 2
    decay_mult: 0
  }
  convolution_param {
    num_output: 75
    bias_term: true
    pad: 0
    kernel_size: 1
    stride: 1
    weight_filler {
      type: "xavier"
    }
    bias_filler {
      value: 0
    }
  }
}
layer {
  name: "conv20"
  type: "Convolution"
  bottom: "conv18_new"
  top: "conv20"
  param {
    lr_mult: 1
    decay_mult: 1
  }
  param {
    lr_mult: 2
    decay_mult: 0
  }
  convolution_param {
    num_output: 75
    bias_term: true
    pad: 0
    kernel_size: 1
    stride: 1
    weight_filler {
      type: "xavier"
    }
    bias_filler {
      value: 0
    }
  }
}
I0123 10:27:28.565976 27660 layer_factory.hpp:77] Creating layer data
I0123 10:27:28.565990 27660 net.cpp:86] Creating Layer data
I0123 10:27:28.565995 27660 net.cpp:382] data -> data
I0123 10:27:28.577090 27660 net.cpp:124] Setting up data
I0123 10:27:28.577116 27660 net.cpp:131] Top shape: 1 3 416 416 (519168)
I0123 10:27:28.577119 27660 net.cpp:139] Memory required for data: 2076672
I0123 10:27:28.577127 27660 layer_factory.hpp:77] Creating layer conv0
I0123 10:27:28.577145 27660 net.cpp:86] Creating Layer conv0
I0123 10:27:28.577149 27660 net.cpp:408] conv0 <- data
I0123 10:27:28.577157 27660 net.cpp:382] conv0 -> conv0
I0123 10:27:28.578454 27660 net.cpp:124] Setting up conv0
I0123 10:27:28.578469 27660 net.cpp:131] Top shape: 1 32 208 208 (1384448)
I0123 10:27:28.578472 27660 net.cpp:139] Memory required for data: 7614464
I0123 10:27:28.578486 27660 layer_factory.hpp:77] Creating layer conv0/relu
I0123 10:27:28.578495 27660 net.cpp:86] Creating Layer conv0/relu
I0123 10:27:28.578497 27660 net.cpp:408] conv0/relu <- conv0
I0123 10:27:28.578500 27660 net.cpp:369] conv0/relu -> conv0 (in-place)
I0123 10:27:28.578506 27660 net.cpp:124] Setting up conv0/relu
I0123 10:27:28.578524 27660 net.cpp:131] Top shape: 1 32 208 208 (1384448)
I0123 10:27:28.578526 27660 net.cpp:139] Memory required for data: 13152256
I0123 10:27:28.578528 27660 layer_factory.hpp:77] Creating layer conv1/dw
I0123 10:27:28.578536 27660 net.cpp:86] Creating Layer conv1/dw
I0123 10:27:28.578539 27660 net.cpp:408] conv1/dw <- conv0
I0123 10:27:28.578543 27660 net.cpp:382] conv1/dw -> conv1/dw
I0123 10:27:28.578732 27660 net.cpp:124] Setting up conv1/dw
I0123 10:27:28.578738 27660 net.cpp:131] Top shape: 1 32 208 208 (1384448)
I0123 10:27:28.578740 27660 net.cpp:139] Memory required for data: 18690048
I0123 10:27:28.578745 27660 layer_factory.hpp:77] Creating layer conv1/dw/relu
I0123 10:27:28.578749 27660 net.cpp:86] Creating Layer conv1/dw/relu
I0123 10:27:28.578752 27660 net.cpp:408] conv1/dw/relu <- conv1/dw
I0123 10:27:28.578754 27660 net.cpp:369] conv1/dw/relu -> conv1/dw (in-place)
I0123 10:27:28.578758 27660 net.cpp:124] Setting up conv1/dw/relu
I0123 10:27:28.578761 27660 net.cpp:131] Top shape: 1 32 208 208 (1384448)
I0123 10:27:28.578794 27660 net.cpp:139] Memory required for data: 24227840
I0123 10:27:28.578796 27660 layer_factory.hpp:77] Creating layer conv1
I0123 10:27:28.578802 27660 net.cpp:86] Creating Layer conv1
I0123 10:27:28.578805 27660 net.cpp:408] conv1 <- conv1/dw
I0123 10:27:28.578809 27660 net.cpp:382] conv1 -> conv1
I0123 10:27:28.579527 27660 net.cpp:124] Setting up conv1
I0123 10:27:28.579537 27660 net.cpp:131] Top shape: 1 64 208 208 (2768896)
I0123 10:27:28.579540 27660 net.cpp:139] Memory required for data: 35303424
I0123 10:27:28.579545 27660 layer_factory.hpp:77] Creating layer conv1/relu
I0123 10:27:28.579550 27660 net.cpp:86] Creating Layer conv1/relu
I0123 10:27:28.579552 27660 net.cpp:408] conv1/relu <- conv1
I0123 10:27:28.579556 27660 net.cpp:369] conv1/relu -> conv1 (in-place)
I0123 10:27:28.579560 27660 net.cpp:124] Setting up conv1/relu
I0123 10:27:28.579563 27660 net.cpp:131] Top shape: 1 64 208 208 (2768896)
I0123 10:27:28.579566 27660 net.cpp:139] Memory required for data: 46379008
I0123 10:27:28.579567 27660 layer_factory.hpp:77] Creating layer conv2/dw
I0123 10:27:28.579573 27660 net.cpp:86] Creating Layer conv2/dw
I0123 10:27:28.579589 27660 net.cpp:408] conv2/dw <- conv1
I0123 10:27:28.579593 27660 net.cpp:382] conv2/dw -> conv2/dw
I0123 10:27:28.580761 27660 net.cpp:124] Setting up conv2/dw
I0123 10:27:28.580772 27660 net.cpp:131] Top shape: 1 64 104 104 (692224)
I0123 10:27:28.580775 27660 net.cpp:139] Memory required for data: 49147904
I0123 10:27:28.580780 27660 layer_factory.hpp:77] Creating layer conv2/dw/relu
I0123 10:27:28.580785 27660 net.cpp:86] Creating Layer conv2/dw/relu
I0123 10:27:28.580787 27660 net.cpp:408] conv2/dw/relu <- conv2/dw
I0123 10:27:28.580790 27660 net.cpp:369] conv2/dw/relu -> conv2/dw (in-place)
I0123 10:27:28.580794 27660 net.cpp:124] Setting up conv2/dw/relu
I0123 10:27:28.580799 27660 net.cpp:131] Top shape: 1 64 104 104 (692224)
I0123 10:27:28.580801 27660 net.cpp:139] Memory required for data: 51916800
I0123 10:27:28.580803 27660 layer_factory.hpp:77] Creating layer conv2
I0123 10:27:28.580808 27660 net.cpp:86] Creating Layer conv2
I0123 10:27:28.580826 27660 net.cpp:408] conv2 <- conv2/dw
I0123 10:27:28.580829 27660 net.cpp:382] conv2 -> conv2
I0123 10:27:28.581053 27660 net.cpp:124] Setting up conv2
I0123 10:27:28.581059 27660 net.cpp:131] Top shape: 1 128 104 104 (1384448)
I0123 10:27:28.581063 27660 net.cpp:139] Memory required for data: 57454592
I0123 10:27:28.581066 27660 layer_factory.hpp:77] Creating layer conv2/relu
I0123 10:27:28.581070 27660 net.cpp:86] Creating Layer conv2/relu
I0123 10:27:28.581073 27660 net.cpp:408] conv2/relu <- conv2
I0123 10:27:28.581075 27660 net.cpp:369] conv2/relu -> conv2 (in-place)
I0123 10:27:28.581079 27660 net.cpp:124] Setting up conv2/relu
I0123 10:27:28.581082 27660 net.cpp:131] Top shape: 1 128 104 104 (1384448)
I0123 10:27:28.581085 27660 net.cpp:139] Memory required for data: 62992384
I0123 10:27:28.581087 27660 layer_factory.hpp:77] Creating layer conv3/dw
I0123 10:27:28.581094 27660 net.cpp:86] Creating Layer conv3/dw
I0123 10:27:28.581110 27660 net.cpp:408] conv3/dw <- conv2
I0123 10:27:28.581115 27660 net.cpp:382] conv3/dw -> conv3/dw
I0123 10:27:28.581295 27660 net.cpp:124] Setting up conv3/dw
I0123 10:27:28.581302 27660 net.cpp:131] Top shape: 1 128 104 104 (1384448)
I0123 10:27:28.581305 27660 net.cpp:139] Memory required for data: 68530176
I0123 10:27:28.581308 27660 layer_factory.hpp:77] Creating layer conv3/dw/relu
I0123 10:27:28.581312 27660 net.cpp:86] Creating Layer conv3/dw/relu
I0123 10:27:28.581315 27660 net.cpp:408] conv3/dw/relu <- conv3/dw
I0123 10:27:28.581318 27660 net.cpp:369] conv3/dw/relu -> conv3/dw (in-place)
I0123 10:27:28.581322 27660 net.cpp:124] Setting up conv3/dw/relu
I0123 10:27:28.581326 27660 net.cpp:131] Top shape: 1 128 104 104 (1384448)
I0123 10:27:28.581327 27660 net.cpp:139] Memory required for data: 74067968
I0123 10:27:28.581329 27660 layer_factory.hpp:77] Creating layer conv3
I0123 10:27:28.581333 27660 net.cpp:86] Creating Layer conv3
I0123 10:27:28.581360 27660 net.cpp:408] conv3 <- conv3/dw
I0123 10:27:28.581365 27660 net.cpp:382] conv3 -> conv3
I0123 10:27:28.581663 27660 net.cpp:124] Setting up conv3
I0123 10:27:28.581670 27660 net.cpp:131] Top shape: 1 128 104 104 (1384448)
I0123 10:27:28.581672 27660 net.cpp:139] Memory required for data: 79605760
I0123 10:27:28.581676 27660 layer_factory.hpp:77] Creating layer conv3/relu
I0123 10:27:28.581693 27660 net.cpp:86] Creating Layer conv3/relu
I0123 10:27:28.581696 27660 net.cpp:408] conv3/relu <- conv3
I0123 10:27:28.581699 27660 net.cpp:369] conv3/relu -> conv3 (in-place)
I0123 10:27:28.581702 27660 net.cpp:124] Setting up conv3/relu
I0123 10:27:28.581706 27660 net.cpp:131] Top shape: 1 128 104 104 (1384448)
I0123 10:27:28.581707 27660 net.cpp:139] Memory required for data: 85143552
I0123 10:27:28.581709 27660 layer_factory.hpp:77] Creating layer conv4/dw
I0123 10:27:28.581714 27660 net.cpp:86] Creating Layer conv4/dw
I0123 10:27:28.581717 27660 net.cpp:408] conv4/dw <- conv3
I0123 10:27:28.581722 27660 net.cpp:382] conv4/dw -> conv4/dw
I0123 10:27:28.581907 27660 net.cpp:124] Setting up conv4/dw
I0123 10:27:28.581912 27660 net.cpp:131] Top shape: 1 128 52 52 (346112)
I0123 10:27:28.581915 27660 net.cpp:139] Memory required for data: 86528000
I0123 10:27:28.581918 27660 layer_factory.hpp:77] Creating layer conv4/dw/relu
I0123 10:27:28.581938 27660 net.cpp:86] Creating Layer conv4/dw/relu
I0123 10:27:28.581939 27660 net.cpp:408] conv4/dw/relu <- conv4/dw
I0123 10:27:28.581943 27660 net.cpp:369] conv4/dw/relu -> conv4/dw (in-place)
I0123 10:27:28.581945 27660 net.cpp:124] Setting up conv4/dw/relu
I0123 10:27:28.581949 27660 net.cpp:131] Top shape: 1 128 52 52 (346112)
I0123 10:27:28.581953 27660 net.cpp:139] Memory required for data: 87912448
I0123 10:27:28.581954 27660 layer_factory.hpp:77] Creating layer conv4
I0123 10:27:28.581957 27660 net.cpp:86] Creating Layer conv4
I0123 10:27:28.581960 27660 net.cpp:408] conv4 <- conv4/dw
I0123 10:27:28.581964 27660 net.cpp:382] conv4 -> conv4
I0123 10:27:28.582358 27660 net.cpp:124] Setting up conv4
I0123 10:27:28.582365 27660 net.cpp:131] Top shape: 1 256 52 52 (692224)
I0123 10:27:28.582367 27660 net.cpp:139] Memory required for data: 90681344
I0123 10:27:28.582371 27660 layer_factory.hpp:77] Creating layer conv4/relu
I0123 10:27:28.582376 27660 net.cpp:86] Creating Layer conv4/relu
I0123 10:27:28.582392 27660 net.cpp:408] conv4/relu <- conv4
I0123 10:27:28.582396 27660 net.cpp:369] conv4/relu -> conv4 (in-place)
I0123 10:27:28.582398 27660 net.cpp:124] Setting up conv4/relu
I0123 10:27:28.582401 27660 net.cpp:131] Top shape: 1 256 52 52 (692224)
I0123 10:27:28.582403 27660 net.cpp:139] Memory required for data: 93450240
I0123 10:27:28.582406 27660 layer_factory.hpp:77] Creating layer conv5/dw
I0123 10:27:28.582410 27660 net.cpp:86] Creating Layer conv5/dw
I0123 10:27:28.582414 27660 net.cpp:408] conv5/dw <- conv4
I0123 10:27:28.582419 27660 net.cpp:382] conv5/dw -> conv5/dw
I0123 10:27:28.582618 27660 net.cpp:124] Setting up conv5/dw
I0123 10:27:28.582623 27660 net.cpp:131] Top shape: 1 256 52 52 (692224)
I0123 10:27:28.582625 27660 net.cpp:139] Memory required for data: 96219136
I0123 10:27:28.582629 27660 layer_factory.hpp:77] Creating layer conv5/dw/relu
I0123 10:27:28.582648 27660 net.cpp:86] Creating Layer conv5/dw/relu
I0123 10:27:28.582649 27660 net.cpp:408] conv5/dw/relu <- conv5/dw
I0123 10:27:28.582653 27660 net.cpp:369] conv5/dw/relu -> conv5/dw (in-place)
I0123 10:27:28.582656 27660 net.cpp:124] Setting up conv5/dw/relu
I0123 10:27:28.582659 27660 net.cpp:131] Top shape: 1 256 52 52 (692224)
I0123 10:27:28.582661 27660 net.cpp:139] Memory required for data: 98988032
I0123 10:27:28.582664 27660 layer_factory.hpp:77] Creating layer conv5
I0123 10:27:28.582667 27660 net.cpp:86] Creating Layer conv5
I0123 10:27:28.582671 27660 net.cpp:408] conv5 <- conv5/dw
I0123 10:27:28.582674 27660 net.cpp:382] conv5 -> conv5
I0123 10:27:28.583235 27660 net.cpp:124] Setting up conv5
I0123 10:27:28.583242 27660 net.cpp:131] Top shape: 1 256 52 52 (692224)
I0123 10:27:28.583266 27660 net.cpp:139] Memory required for data: 101756928
I0123 10:27:28.583269 27660 layer_factory.hpp:77] Creating layer conv5/relu
I0123 10:27:28.583272 27660 net.cpp:86] Creating Layer conv5/relu
I0123 10:27:28.583276 27660 net.cpp:408] conv5/relu <- conv5
I0123 10:27:28.583278 27660 net.cpp:369] conv5/relu -> conv5 (in-place)
I0123 10:27:28.583281 27660 net.cpp:124] Setting up conv5/relu
I0123 10:27:28.583284 27660 net.cpp:131] Top shape: 1 256 52 52 (692224)
I0123 10:27:28.583287 27660 net.cpp:139] Memory required for data: 104525824
I0123 10:27:28.583288 27660 layer_factory.hpp:77] Creating layer conv6/dw
I0123 10:27:28.583293 27660 net.cpp:86] Creating Layer conv6/dw
I0123 10:27:28.583297 27660 net.cpp:408] conv6/dw <- conv5
I0123 10:27:28.583302 27660 net.cpp:382] conv6/dw -> conv6/dw
I0123 10:27:28.583505 27660 net.cpp:124] Setting up conv6/dw
I0123 10:27:28.583510 27660 net.cpp:131] Top shape: 1 256 26 26 (173056)
I0123 10:27:28.583513 27660 net.cpp:139] Memory required for data: 105218048
I0123 10:27:28.583539 27660 layer_factory.hpp:77] Creating layer conv6/dw/relu
I0123 10:27:28.583542 27660 net.cpp:86] Creating Layer conv6/dw/relu
I0123 10:27:28.583544 27660 net.cpp:408] conv6/dw/relu <- conv6/dw
I0123 10:27:28.583547 27660 net.cpp:369] conv6/dw/relu -> conv6/dw (in-place)
I0123 10:27:28.583554 27660 net.cpp:124] Setting up conv6/dw/relu
I0123 10:27:28.583557 27660 net.cpp:131] Top shape: 1 256 26 26 (173056)
I0123 10:27:28.583559 27660 net.cpp:139] Memory required for data: 105910272
I0123 10:27:28.583561 27660 layer_factory.hpp:77] Creating layer conv6
I0123 10:27:28.583566 27660 net.cpp:86] Creating Layer conv6
I0123 10:27:28.583570 27660 net.cpp:408] conv6 <- conv6/dw
I0123 10:27:28.583573 27660 net.cpp:382] conv6 -> conv6
I0123 10:27:28.585125 27660 net.cpp:124] Setting up conv6
I0123 10:27:28.585136 27660 net.cpp:131] Top shape: 1 512 26 26 (346112)
I0123 10:27:28.585139 27660 net.cpp:139] Memory required for data: 107294720
I0123 10:27:28.585157 27660 layer_factory.hpp:77] Creating layer conv6/relu
I0123 10:27:28.585163 27660 net.cpp:86] Creating Layer conv6/relu
I0123 10:27:28.585166 27660 net.cpp:408] conv6/relu <- conv6
I0123 10:27:28.585170 27660 net.cpp:369] conv6/relu -> conv6 (in-place)
I0123 10:27:28.585173 27660 net.cpp:124] Setting up conv6/relu
I0123 10:27:28.585176 27660 net.cpp:131] Top shape: 1 512 26 26 (346112)
I0123 10:27:28.585180 27660 net.cpp:139] Memory required for data: 108679168
I0123 10:27:28.585181 27660 layer_factory.hpp:77] Creating layer conv7/dw
I0123 10:27:28.585186 27660 net.cpp:86] Creating Layer conv7/dw
I0123 10:27:28.585188 27660 net.cpp:408] conv7/dw <- conv6
I0123 10:27:28.585193 27660 net.cpp:382] conv7/dw -> conv7/dw
I0123 10:27:28.585418 27660 net.cpp:124] Setting up conv7/dw
I0123 10:27:28.585424 27660 net.cpp:131] Top shape: 1 512 26 26 (346112)
I0123 10:27:28.585427 27660 net.cpp:139] Memory required for data: 110063616
I0123 10:27:28.585430 27660 layer_factory.hpp:77] Creating layer conv7/dw/relu
I0123 10:27:28.585448 27660 net.cpp:86] Creating Layer conv7/dw/relu
I0123 10:27:28.585451 27660 net.cpp:408] conv7/dw/relu <- conv7/dw
I0123 10:27:28.585454 27660 net.cpp:369] conv7/dw/relu -> conv7/dw (in-place)
I0123 10:27:28.585458 27660 net.cpp:124] Setting up conv7/dw/relu
I0123 10:27:28.585460 27660 net.cpp:131] Top shape: 1 512 26 26 (346112)
I0123 10:27:28.585463 27660 net.cpp:139] Memory required for data: 111448064
I0123 10:27:28.585465 27660 layer_factory.hpp:77] Creating layer conv7
I0123 10:27:28.585470 27660 net.cpp:86] Creating Layer conv7
I0123 10:27:28.585474 27660 net.cpp:408] conv7 <- conv7/dw
I0123 10:27:28.585477 27660 net.cpp:382] conv7 -> conv7
I0123 10:27:28.587293 27660 net.cpp:124] Setting up conv7
I0123 10:27:28.587299 27660 net.cpp:131] Top shape: 1 512 26 26 (346112)
I0123 10:27:28.587302 27660 net.cpp:139] Memory required for data: 112832512
I0123 10:27:28.587306 27660 layer_factory.hpp:77] Creating layer conv7/relu
I0123 10:27:28.587325 27660 net.cpp:86] Creating Layer conv7/relu
I0123 10:27:28.587328 27660 net.cpp:408] conv7/relu <- conv7
I0123 10:27:28.587340 27660 net.cpp:369] conv7/relu -> conv7 (in-place)
I0123 10:27:28.587344 27660 net.cpp:124] Setting up conv7/relu
I0123 10:27:28.587347 27660 net.cpp:131] Top shape: 1 512 26 26 (346112)
I0123 10:27:28.587349 27660 net.cpp:139] Memory required for data: 114216960
I0123 10:27:28.587352 27660 layer_factory.hpp:77] Creating layer conv8/dw
I0123 10:27:28.587357 27660 net.cpp:86] Creating Layer conv8/dw
I0123 10:27:28.587360 27660 net.cpp:408] conv8/dw <- conv7
I0123 10:27:28.587363 27660 net.cpp:382] conv8/dw -> conv8/dw
I0123 10:27:28.587581 27660 net.cpp:124] Setting up conv8/dw
I0123 10:27:28.587587 27660 net.cpp:131] Top shape: 1 512 26 26 (346112)
I0123 10:27:28.587589 27660 net.cpp:139] Memory required for data: 115601408
I0123 10:27:28.587592 27660 layer_factory.hpp:77] Creating layer conv8/dw/relu
I0123 10:27:28.587613 27660 net.cpp:86] Creating Layer conv8/dw/relu
I0123 10:27:28.587616 27660 net.cpp:408] conv8/dw/relu <- conv8/dw
I0123 10:27:28.587620 27660 net.cpp:369] conv8/dw/relu -> conv8/dw (in-place)
I0123 10:27:28.587622 27660 net.cpp:124] Setting up conv8/dw/relu
I0123 10:27:28.587625 27660 net.cpp:131] Top shape: 1 512 26 26 (346112)
I0123 10:27:28.587627 27660 net.cpp:139] Memory required for data: 116985856
I0123 10:27:28.587630 27660 layer_factory.hpp:77] Creating layer conv8
I0123 10:27:28.587635 27660 net.cpp:86] Creating Layer conv8
I0123 10:27:28.587638 27660 net.cpp:408] conv8 <- conv8/dw
I0123 10:27:28.587642 27660 net.cpp:382] conv8 -> conv8
I0123 10:27:28.589993 27660 net.cpp:124] Setting up conv8
I0123 10:27:28.590004 27660 net.cpp:131] Top shape: 1 512 26 26 (346112)
I0123 10:27:28.590008 27660 net.cpp:139] Memory required for data: 118370304
I0123 10:27:28.590030 27660 layer_factory.hpp:77] Creating layer conv8/relu
I0123 10:27:28.590036 27660 net.cpp:86] Creating Layer conv8/relu
I0123 10:27:28.590039 27660 net.cpp:408] conv8/relu <- conv8
I0123 10:27:28.590042 27660 net.cpp:369] conv8/relu -> conv8 (in-place)
I0123 10:27:28.590047 27660 net.cpp:124] Setting up conv8/relu
I0123 10:27:28.590050 27660 net.cpp:131] Top shape: 1 512 26 26 (346112)
I0123 10:27:28.590056 27660 net.cpp:139] Memory required for data: 119754752
I0123 10:27:28.590059 27660 layer_factory.hpp:77] Creating layer conv9/dw
I0123 10:27:28.590065 27660 net.cpp:86] Creating Layer conv9/dw
I0123 10:27:28.590067 27660 net.cpp:408] conv9/dw <- conv8
I0123 10:27:28.590070 27660 net.cpp:382] conv9/dw -> conv9/dw
I0123 10:27:28.590296 27660 net.cpp:124] Setting up conv9/dw
I0123 10:27:28.590302 27660 net.cpp:131] Top shape: 1 512 26 26 (346112)
I0123 10:27:28.590306 27660 net.cpp:139] Memory required for data: 121139200
I0123 10:27:28.590308 27660 layer_factory.hpp:77] Creating layer conv9/dw/relu
I0123 10:27:28.590329 27660 net.cpp:86] Creating Layer conv9/dw/relu
I0123 10:27:28.590332 27660 net.cpp:408] conv9/dw/relu <- conv9/dw
I0123 10:27:28.590335 27660 net.cpp:369] conv9/dw/relu -> conv9/dw (in-place)
I0123 10:27:28.590338 27660 net.cpp:124] Setting up conv9/dw/relu
I0123 10:27:28.590342 27660 net.cpp:131] Top shape: 1 512 26 26 (346112)
I0123 10:27:28.590343 27660 net.cpp:139] Memory required for data: 122523648
I0123 10:27:28.590345 27660 layer_factory.hpp:77] Creating layer conv9
I0123 10:27:28.590350 27660 net.cpp:86] Creating Layer conv9
I0123 10:27:28.590354 27660 net.cpp:408] conv9 <- conv9/dw
I0123 10:27:28.590358 27660 net.cpp:382] conv9 -> conv9
I0123 10:27:28.592128 27660 net.cpp:124] Setting up conv9
I0123 10:27:28.592135 27660 net.cpp:131] Top shape: 1 512 26 26 (346112)
I0123 10:27:28.592139 27660 net.cpp:139] Memory required for data: 123908096
I0123 10:27:28.592141 27660 layer_factory.hpp:77] Creating layer conv9/relu
I0123 10:27:28.592160 27660 net.cpp:86] Creating Layer conv9/relu
I0123 10:27:28.592164 27660 net.cpp:408] conv9/relu <- conv9
I0123 10:27:28.592166 27660 net.cpp:369] conv9/relu -> conv9 (in-place)
I0123 10:27:28.592170 27660 net.cpp:124] Setting up conv9/relu
I0123 10:27:28.592173 27660 net.cpp:131] Top shape: 1 512 26 26 (346112)
I0123 10:27:28.592185 27660 net.cpp:139] Memory required for data: 125292544
I0123 10:27:28.592187 27660 layer_factory.hpp:77] Creating layer conv10/dw
I0123 10:27:28.592193 27660 net.cpp:86] Creating Layer conv10/dw
I0123 10:27:28.592196 27660 net.cpp:408] conv10/dw <- conv9
I0123 10:27:28.592200 27660 net.cpp:382] conv10/dw -> conv10/dw
I0123 10:27:28.592420 27660 net.cpp:124] Setting up conv10/dw
I0123 10:27:28.592427 27660 net.cpp:131] Top shape: 1 512 26 26 (346112)
I0123 10:27:28.592428 27660 net.cpp:139] Memory required for data: 126676992
I0123 10:27:28.592432 27660 layer_factory.hpp:77] Creating layer conv10/dw/relu
I0123 10:27:28.592450 27660 net.cpp:86] Creating Layer conv10/dw/relu
I0123 10:27:28.592453 27660 net.cpp:408] conv10/dw/relu <- conv10/dw
I0123 10:27:28.592456 27660 net.cpp:369] conv10/dw/relu -> conv10/dw (in-place)
I0123 10:27:28.592459 27660 net.cpp:124] Setting up conv10/dw/relu
I0123 10:27:28.592463 27660 net.cpp:131] Top shape: 1 512 26 26 (346112)
I0123 10:27:28.592464 27660 net.cpp:139] Memory required for data: 128061440
I0123 10:27:28.592466 27660 layer_factory.hpp:77] Creating layer conv10
I0123 10:27:28.592471 27660 net.cpp:86] Creating Layer conv10
I0123 10:27:28.592474 27660 net.cpp:408] conv10 <- conv10/dw
I0123 10:27:28.592478 27660 net.cpp:382] conv10 -> conv10
I0123 10:27:28.594786 27660 net.cpp:124] Setting up conv10
I0123 10:27:28.594797 27660 net.cpp:131] Top shape: 1 512 26 26 (346112)
I0123 10:27:28.594799 27660 net.cpp:139] Memory required for data: 129445888
I0123 10:27:28.594817 27660 layer_factory.hpp:77] Creating layer conv10/relu
I0123 10:27:28.594823 27660 net.cpp:86] Creating Layer conv10/relu
I0123 10:27:28.594826 27660 net.cpp:408] conv10/relu <- conv10
I0123 10:27:28.594830 27660 net.cpp:369] conv10/relu -> conv10 (in-place)
I0123 10:27:28.594835 27660 net.cpp:124] Setting up conv10/relu
I0123 10:27:28.594837 27660 net.cpp:131] Top shape: 1 512 26 26 (346112)
I0123 10:27:28.594839 27660 net.cpp:139] Memory required for data: 130830336
I0123 10:27:28.594841 27660 layer_factory.hpp:77] Creating layer conv11/dw
I0123 10:27:28.594847 27660 net.cpp:86] Creating Layer conv11/dw
I0123 10:27:28.594851 27660 net.cpp:408] conv11/dw <- conv10
I0123 10:27:28.594854 27660 net.cpp:382] conv11/dw -> conv11/dw
I0123 10:27:28.595082 27660 net.cpp:124] Setting up conv11/dw
I0123 10:27:28.595086 27660 net.cpp:131] Top shape: 1 512 26 26 (346112)
I0123 10:27:28.595089 27660 net.cpp:139] Memory required for data: 132214784
I0123 10:27:28.595093 27660 layer_factory.hpp:77] Creating layer conv11/dw/relu
I0123 10:27:28.595110 27660 net.cpp:86] Creating Layer conv11/dw/relu
I0123 10:27:28.595113 27660 net.cpp:408] conv11/dw/relu <- conv11/dw
I0123 10:27:28.595116 27660 net.cpp:369] conv11/dw/relu -> conv11/dw (in-place)
I0123 10:27:28.595119 27660 net.cpp:124] Setting up conv11/dw/relu
I0123 10:27:28.595122 27660 net.cpp:131] Top shape: 1 512 26 26 (346112)
I0123 10:27:28.595124 27660 net.cpp:139] Memory required for data: 133599232
I0123 10:27:28.595126 27660 layer_factory.hpp:77] Creating layer conv11
I0123 10:27:28.595131 27660 net.cpp:86] Creating Layer conv11
I0123 10:27:28.595135 27660 net.cpp:408] conv11 <- conv11/dw
I0123 10:27:28.595139 27660 net.cpp:382] conv11 -> conv11
I0123 10:27:28.596966 27660 net.cpp:124] Setting up conv11
I0123 10:27:28.596973 27660 net.cpp:131] Top shape: 1 512 26 26 (346112)
I0123 10:27:28.596976 27660 net.cpp:139] Memory required for data: 134983680
I0123 10:27:28.596979 27660 layer_factory.hpp:77] Creating layer conv11/relu
I0123 10:27:28.596982 27660 net.cpp:86] Creating Layer conv11/relu
I0123 10:27:28.596985 27660 net.cpp:408] conv11/relu <- conv11
I0123 10:27:28.596989 27660 net.cpp:369] conv11/relu -> conv11 (in-place)
I0123 10:27:28.596993 27660 net.cpp:124] Setting up conv11/relu
I0123 10:27:28.596997 27660 net.cpp:131] Top shape: 1 512 26 26 (346112)
I0123 10:27:28.596998 27660 net.cpp:139] Memory required for data: 136368128
I0123 10:27:28.597000 27660 layer_factory.hpp:77] Creating layer conv11_conv11/relu_0_split
I0123 10:27:28.597004 27660 net.cpp:86] Creating Layer conv11_conv11/relu_0_split
I0123 10:27:28.597015 27660 net.cpp:408] conv11_conv11/relu_0_split <- conv11
I0123 10:27:28.597019 27660 net.cpp:382] conv11_conv11/relu_0_split -> conv11_conv11/relu_0_split_0
I0123 10:27:28.597026 27660 net.cpp:382] conv11_conv11/relu_0_split -> conv11_conv11/relu_0_split_1
I0123 10:27:28.597080 27660 net.cpp:124] Setting up conv11_conv11/relu_0_split
I0123 10:27:28.597085 27660 net.cpp:131] Top shape: 1 512 26 26 (346112)
I0123 10:27:28.597088 27660 net.cpp:131] Top shape: 1 512 26 26 (346112)
I0123 10:27:28.597090 27660 net.cpp:139] Memory required for data: 139137024
I0123 10:27:28.597092 27660 layer_factory.hpp:77] Creating layer conv12/dw
I0123 10:27:28.597098 27660 net.cpp:86] Creating Layer conv12/dw
I0123 10:27:28.597100 27660 net.cpp:408] conv12/dw <- conv11_conv11/relu_0_split_0
I0123 10:27:28.597111 27660 net.cpp:382] conv12/dw -> conv12/dw
I0123 10:27:28.597337 27660 net.cpp:124] Setting up conv12/dw
I0123 10:27:28.597342 27660 net.cpp:131] Top shape: 1 512 13 13 (86528)
I0123 10:27:28.597345 27660 net.cpp:139] Memory required for data: 139483136
I0123 10:27:28.597348 27660 layer_factory.hpp:77] Creating layer conv12/dw/relu
I0123 10:27:28.597353 27660 net.cpp:86] Creating Layer conv12/dw/relu
I0123 10:27:28.597355 27660 net.cpp:408] conv12/dw/relu <- conv12/dw
I0123 10:27:28.597358 27660 net.cpp:369] conv12/dw/relu -> conv12/dw (in-place)
I0123 10:27:28.597362 27660 net.cpp:124] Setting up conv12/dw/relu
I0123 10:27:28.597365 27660 net.cpp:131] Top shape: 1 512 13 13 (86528)
I0123 10:27:28.597368 27660 net.cpp:139] Memory required for data: 139829248
I0123 10:27:28.597369 27660 layer_factory.hpp:77] Creating layer conv12
I0123 10:27:28.597375 27660 net.cpp:86] Creating Layer conv12
I0123 10:27:28.597378 27660 net.cpp:408] conv12 <- conv12/dw
I0123 10:27:28.597390 27660 net.cpp:382] conv12 -> conv12
I0123 10:27:28.601318 27660 net.cpp:124] Setting up conv12
I0123 10:27:28.601332 27660 net.cpp:131] Top shape: 1 1024 13 13 (173056)
I0123 10:27:28.601335 27660 net.cpp:139] Memory required for data: 140521472
I0123 10:27:28.601339 27660 layer_factory.hpp:77] Creating layer conv12/relu
I0123 10:27:28.601346 27660 net.cpp:86] Creating Layer conv12/relu
I0123 10:27:28.601348 27660 net.cpp:408] conv12/relu <- conv12
I0123 10:27:28.601352 27660 net.cpp:369] conv12/relu -> conv12 (in-place)
I0123 10:27:28.601357 27660 net.cpp:124] Setting up conv12/relu
I0123 10:27:28.601361 27660 net.cpp:131] Top shape: 1 1024 13 13 (173056)
I0123 10:27:28.601362 27660 net.cpp:139] Memory required for data: 141213696
I0123 10:27:28.601364 27660 layer_factory.hpp:77] Creating layer conv13/dw
I0123 10:27:28.601369 27660 net.cpp:86] Creating Layer conv13/dw
I0123 10:27:28.601372 27660 net.cpp:408] conv13/dw <- conv12
I0123 10:27:28.601377 27660 net.cpp:382] conv13/dw -> conv13/dw
I0123 10:27:28.601600 27660 net.cpp:124] Setting up conv13/dw
I0123 10:27:28.601606 27660 net.cpp:131] Top shape: 1 1024 13 13 (173056)
I0123 10:27:28.601609 27660 net.cpp:139] Memory required for data: 141905920
I0123 10:27:28.601613 27660 layer_factory.hpp:77] Creating layer conv13/dw/relu
I0123 10:27:28.601616 27660 net.cpp:86] Creating Layer conv13/dw/relu
I0123 10:27:28.601619 27660 net.cpp:408] conv13/dw/relu <- conv13/dw
I0123 10:27:28.601632 27660 net.cpp:369] conv13/dw/relu -> conv13/dw (in-place)
I0123 10:27:28.601637 27660 net.cpp:124] Setting up conv13/dw/relu
I0123 10:27:28.601641 27660 net.cpp:131] Top shape: 1 1024 13 13 (173056)
I0123 10:27:28.601644 27660 net.cpp:139] Memory required for data: 142598144
I0123 10:27:28.601645 27660 layer_factory.hpp:77] Creating layer conv13
I0123 10:27:28.601650 27660 net.cpp:86] Creating Layer conv13
I0123 10:27:28.601655 27660 net.cpp:408] conv13 <- conv13/dw
I0123 10:27:28.601657 27660 net.cpp:382] conv13 -> conv13
I0123 10:27:28.609167 27660 net.cpp:124] Setting up conv13
I0123 10:27:28.609184 27660 net.cpp:131] Top shape: 1 1024 13 13 (173056)
I0123 10:27:28.609186 27660 net.cpp:139] Memory required for data: 143290368
I0123 10:27:28.609206 27660 layer_factory.hpp:77] Creating layer conv13/relu
I0123 10:27:28.609226 27660 net.cpp:86] Creating Layer conv13/relu
I0123 10:27:28.609230 27660 net.cpp:408] conv13/relu <- conv13
I0123 10:27:28.609235 27660 net.cpp:369] conv13/relu -> conv13 (in-place)
I0123 10:27:28.609241 27660 net.cpp:124] Setting up conv13/relu
I0123 10:27:28.609246 27660 net.cpp:131] Top shape: 1 1024 13 13 (173056)
I0123 10:27:28.609247 27660 net.cpp:139] Memory required for data: 143982592
I0123 10:27:28.609249 27660 layer_factory.hpp:77] Creating layer conv15/dw
I0123 10:27:28.609272 27660 net.cpp:86] Creating Layer conv15/dw
I0123 10:27:28.609277 27660 net.cpp:408] conv15/dw <- conv13
I0123 10:27:28.609282 27660 net.cpp:382] conv15/dw -> conv15/dw
I0123 10:27:28.609585 27660 net.cpp:124] Setting up conv15/dw
I0123 10:27:28.609591 27660 net.cpp:131] Top shape: 1 1024 13 13 (173056)
I0123 10:27:28.609593 27660 net.cpp:139] Memory required for data: 144674816
I0123 10:27:28.609597 27660 layer_factory.hpp:77] Creating layer conv15/dw/relu
I0123 10:27:28.609614 27660 net.cpp:86] Creating Layer conv15/dw/relu
I0123 10:27:28.609617 27660 net.cpp:408] conv15/dw/relu <- conv15/dw
I0123 10:27:28.609622 27660 net.cpp:369] conv15/dw/relu -> conv15/dw (in-place)
I0123 10:27:28.609625 27660 net.cpp:124] Setting up conv15/dw/relu
I0123 10:27:28.609628 27660 net.cpp:131] Top shape: 1 1024 13 13 (173056)
I0123 10:27:28.609630 27660 net.cpp:139] Memory required for data: 145367040
I0123 10:27:28.609632 27660 layer_factory.hpp:77] Creating layer conv15
I0123 10:27:28.609637 27660 net.cpp:86] Creating Layer conv15
I0123 10:27:28.609640 27660 net.cpp:408] conv15 <- conv15/dw
I0123 10:27:28.609645 27660 net.cpp:382] conv15 -> conv15
I0123 10:27:28.617111 27660 net.cpp:124] Setting up conv15
I0123 10:27:28.617130 27660 net.cpp:131] Top shape: 1 1024 13 13 (173056)
I0123 10:27:28.617131 27660 net.cpp:139] Memory required for data: 146059264
I0123 10:27:28.617151 27660 layer_factory.hpp:77] Creating layer conv15/relu
I0123 10:27:28.617158 27660 net.cpp:86] Creating Layer conv15/relu
I0123 10:27:28.617161 27660 net.cpp:408] conv15/relu <- conv15
I0123 10:27:28.617166 27660 net.cpp:369] conv15/relu -> conv15 (in-place)
I0123 10:27:28.617172 27660 net.cpp:124] Setting up conv15/relu
I0123 10:27:28.617174 27660 net.cpp:131] Top shape: 1 1024 13 13 (173056)
I0123 10:27:28.617177 27660 net.cpp:139] Memory required for data: 146751488
I0123 10:27:28.617178 27660 layer_factory.hpp:77] Creating layer conv15_conv15/relu_0_split
I0123 10:27:28.617183 27660 net.cpp:86] Creating Layer conv15_conv15/relu_0_split
I0123 10:27:28.617187 27660 net.cpp:408] conv15_conv15/relu_0_split <- conv15
I0123 10:27:28.617190 27660 net.cpp:382] conv15_conv15/relu_0_split -> conv15_conv15/relu_0_split_0
I0123 10:27:28.617198 27660 net.cpp:382] conv15_conv15/relu_0_split -> conv15_conv15/relu_0_split_1
I0123 10:27:28.617257 27660 net.cpp:124] Setting up conv15_conv15/relu_0_split
I0123 10:27:28.617262 27660 net.cpp:131] Top shape: 1 1024 13 13 (173056)
I0123 10:27:28.617265 27660 net.cpp:131] Top shape: 1 1024 13 13 (173056)
I0123 10:27:28.617267 27660 net.cpp:139] Memory required for data: 148135936
I0123 10:27:28.617269 27660 layer_factory.hpp:77] Creating layer upsample
I0123 10:27:28.617277 27660 net.cpp:86] Creating Layer upsample
I0123 10:27:28.617280 27660 net.cpp:408] upsample <- conv15_conv15/relu_0_split_0
I0123 10:27:28.617285 27660 net.cpp:382] upsample -> upsample
I0123 10:27:28.617447 27660 net.cpp:124] Setting up upsample
I0123 10:27:28.617453 27660 net.cpp:131] Top shape: 1 512 25 25 (320000)
I0123 10:27:28.617455 27660 net.cpp:139] Memory required for data: 149415936
I0123 10:27:28.617485 27660 layer_factory.hpp:77] Creating layer maxpool
I0123 10:27:28.617489 27660 net.cpp:86] Creating Layer maxpool
I0123 10:27:28.617492 27660 net.cpp:408] maxpool <- upsample
I0123 10:27:28.617496 27660 net.cpp:382] maxpool -> maxpool
I0123 10:27:28.617534 27660 net.cpp:124] Setting up maxpool
I0123 10:27:28.617539 27660 net.cpp:131] Top shape: 1 512 26 26 (346112)
I0123 10:27:28.617542 27660 net.cpp:139] Memory required for data: 150800384
I0123 10:27:28.617558 27660 layer_factory.hpp:77] Creating layer conv17/dw
I0123 10:27:28.617564 27660 net.cpp:86] Creating Layer conv17/dw
I0123 10:27:28.617568 27660 net.cpp:408] conv17/dw <- conv11_conv11/relu_0_split_1
I0123 10:27:28.617586 27660 net.cpp:382] conv17/dw -> conv17/dw
I0123 10:27:28.617799 27660 net.cpp:124] Setting up conv17/dw
I0123 10:27:28.617806 27660 net.cpp:131] Top shape: 1 512 26 26 (346112)
I0123 10:27:28.617808 27660 net.cpp:139] Memory required for data: 152184832
I0123 10:27:28.617812 27660 layer_factory.hpp:77] Creating layer conv17/dw/relu
I0123 10:27:28.617835 27660 net.cpp:86] Creating Layer conv17/dw/relu
I0123 10:27:28.617837 27660 net.cpp:408] conv17/dw/relu <- conv17/dw
I0123 10:27:28.617841 27660 net.cpp:369] conv17/dw/relu -> conv17/dw (in-place)
I0123 10:27:28.617844 27660 net.cpp:124] Setting up conv17/dw/relu
I0123 10:27:28.617847 27660 net.cpp:131] Top shape: 1 512 26 26 (346112)
I0123 10:27:28.617849 27660 net.cpp:139] Memory required for data: 153569280
I0123 10:27:28.617852 27660 layer_factory.hpp:77] Creating layer conv17
I0123 10:27:28.617856 27660 net.cpp:86] Creating Layer conv17
I0123 10:27:28.617859 27660 net.cpp:408] conv17 <- conv17/dw
I0123 10:27:28.617863 27660 net.cpp:382] conv17 -> conv17
I0123 10:27:28.620239 27660 net.cpp:124] Setting up conv17
I0123 10:27:28.620251 27660 net.cpp:131] Top shape: 1 512 26 26 (346112)
I0123 10:27:28.620254 27660 net.cpp:139] Memory required for data: 154953728
I0123 10:27:28.620259 27660 layer_factory.hpp:77] Creating layer conv17/relu
I0123 10:27:28.620263 27660 net.cpp:86] Creating Layer conv17/relu
I0123 10:27:28.620266 27660 net.cpp:408] conv17/relu <- conv17
I0123 10:27:28.620270 27660 net.cpp:369] conv17/relu -> conv17 (in-place)
I0123 10:27:28.620275 27660 net.cpp:124] Setting up conv17/relu
I0123 10:27:28.620278 27660 net.cpp:131] Top shape: 1 512 26 26 (346112)
I0123 10:27:28.620280 27660 net.cpp:139] Memory required for data: 156338176
I0123 10:27:28.620282 27660 layer_factory.hpp:77] Creating layer conv17/sum
I0123 10:27:28.620285 27660 net.cpp:86] Creating Layer conv17/sum
I0123 10:27:28.620288 27660 net.cpp:408] conv17/sum <- maxpool
I0123 10:27:28.620306 27660 net.cpp:408] conv17/sum <- conv17
I0123 10:27:28.620308 27660 net.cpp:382] conv17/sum -> conv17/sum
I0123 10:27:28.620328 27660 net.cpp:124] Setting up conv17/sum
I0123 10:27:28.620347 27660 net.cpp:131] Top shape: 1 512 26 26 (346112)
I0123 10:27:28.620349 27660 net.cpp:139] Memory required for data: 157722624
I0123 10:27:28.620352 27660 layer_factory.hpp:77] Creating layer conv18/dw
I0123 10:27:28.620357 27660 net.cpp:86] Creating Layer conv18/dw
I0123 10:27:28.620358 27660 net.cpp:408] conv18/dw <- conv17/sum
I0123 10:27:28.620363 27660 net.cpp:382] conv18/dw -> conv18/dw
I0123 10:27:28.620584 27660 net.cpp:124] Setting up conv18/dw
I0123 10:27:28.620589 27660 net.cpp:131] Top shape: 1 512 26 26 (346112)
I0123 10:27:28.620591 27660 net.cpp:139] Memory required for data: 159107072
I0123 10:27:28.620601 27660 layer_factory.hpp:77] Creating layer conv18/dw/relu
I0123 10:27:28.620605 27660 net.cpp:86] Creating Layer conv18/dw/relu
I0123 10:27:28.620607 27660 net.cpp:408] conv18/dw/relu <- conv18/dw
I0123 10:27:28.620610 27660 net.cpp:369] conv18/dw/relu -> conv18/dw (in-place)
I0123 10:27:28.620615 27660 net.cpp:124] Setting up conv18/dw/relu
I0123 10:27:28.620618 27660 net.cpp:131] Top shape: 1 512 26 26 (346112)
I0123 10:27:28.620620 27660 net.cpp:139] Memory required for data: 160491520
I0123 10:27:28.620622 27660 layer_factory.hpp:77] Creating layer conv18_new
I0123 10:27:28.620642 27660 net.cpp:86] Creating Layer conv18_new
I0123 10:27:28.620645 27660 net.cpp:408] conv18_new <- conv18/dw
I0123 10:27:28.620648 27660 net.cpp:382] conv18_new -> conv18_new
I0123 10:27:28.624534 27660 net.cpp:124] Setting up conv18_new
I0123 10:27:28.624547 27660 net.cpp:131] Top shape: 1 1024 26 26 (692224)
I0123 10:27:28.624548 27660 net.cpp:139] Memory required for data: 163260416
I0123 10:27:28.624567 27660 layer_factory.hpp:77] Creating layer conv18_new/relu
I0123 10:27:28.624584 27660 net.cpp:86] Creating Layer conv18_new/relu
I0123 10:27:28.624588 27660 net.cpp:408] conv18_new/relu <- conv18_new
I0123 10:27:28.624591 27660 net.cpp:369] conv18_new/relu -> conv18_new (in-place)
I0123 10:27:28.624598 27660 net.cpp:124] Setting up conv18_new/relu
I0123 10:27:28.624601 27660 net.cpp:131] Top shape: 1 1024 26 26 (692224)
I0123 10:27:28.624604 27660 net.cpp:139] Memory required for data: 166029312
I0123 10:27:28.624606 27660 layer_factory.hpp:77] Creating layer conv19
I0123 10:27:28.624627 27660 net.cpp:86] Creating Layer conv19
I0123 10:27:28.624631 27660 net.cpp:408] conv19 <- conv15_conv15/relu_0_split_1
I0123 10:27:28.624635 27660 net.cpp:382] conv19 -> conv19
I0123 10:27:28.625171 27660 net.cpp:124] Setting up conv19
I0123 10:27:28.625178 27660 net.cpp:131] Top shape: 1 75 13 13 (12675)
I0123 10:27:28.625181 27660 net.cpp:139] Memory required for data: 166080012
I0123 10:27:28.625185 27660 layer_factory.hpp:77] Creating layer conv20
I0123 10:27:28.625206 27660 net.cpp:86] Creating Layer conv20
I0123 10:27:28.625208 27660 net.cpp:408] conv20 <- conv18_new
I0123 10:27:28.625213 27660 net.cpp:382] conv20 -> conv20
I0123 10:27:28.625684 27660 net.cpp:124] Setting up conv20
I0123 10:27:28.625691 27660 net.cpp:131] Top shape: 1 75 26 26 (50700)
I0123 10:27:28.625695 27660 net.cpp:139] Memory required for data: 166282812
I0123 10:27:28.625713 27660 net.cpp:202] conv20 does not need backward computation.
I0123 10:27:28.625720 27660 net.cpp:202] conv19 does not need backward computation.
I0123 10:27:28.625722 27660 net.cpp:202] conv18_new/relu does not need backward computation.
I0123 10:27:28.625725 27660 net.cpp:202] conv18_new does not need backward computation.
…
